2025 AI Hackathon/t1_submit/model/traffic_lstm_model.pth (torch, 358567 bytes, 7 tensors)

lstm.weight_ih_l0 f4 [512, 27]
00000000: 9f6d 35bd 9848 033d 4d08 cbbd 1adb abbd
00000010: d910 413d fcf9 f53c ae78 46bd 6de2 643b
00000020: e667 47be e169 8a3c cef3 b8bd 97c8 5a3d
00000030: d0c1 c6bd 68c3 0bbc d4e8 00bd a738 aebc
00000040: c430 bb3b 92f7 35bd 2747 e43c 80f7 973d
00000050: 6341 c13d 3e2f 34bc 483f ba3d ebcb 533d
00000060: 93c4 bc3d 989d c0bd a3b5 3fbd d054 42bc
00000070: 04e2 d43c 1904 27be 2b38 8cbc af41 d8bd
00000080: 01d1 833c 8862 053e 74bc 833d b72c 3cbe
00000090: bd44 1f3d 9729 acbd a7bc 9b3b a9e1 97bd
000000a0: 3407 17bd d9a8 a8bd b3fa 7dbd b5f5 94bd
000000b0: c2c1 61bd acfa 35be 54a6 23bd 5b43 67be
000000c0: a434 453d 98bc 253d 7ee9 0cbc db0b 233e
000000d0: 6480 debd 587c acbd c176 893d 9a84 5bbd
000000e0: 052e a73c f275 8ebd b2c9 543d 0e59 c5bd
000000f0: 065f 713d efbd de3d a0bc 01be d2e4 29bd
00000100: 1ce5 d1bd 1d5c 27bd 3628 82bd 5907 25bd
00000110: d94e 1f3e a898 5a3c 6487 c3bd 81a6 123e
00000120: faed c63d 8392 043d cc62 313d 642c eabd
00000130: 88c7 39be e623 ed3c 31e8 8b3d f28a 6ebd
00000140: ea86 55bd 0aa7 333d 1058 8c3c 2f53 bdbd
00000150: 96a9 e5bc 1dd7 203d 0193 abbd dafa 273e
00000160: 1cd5 3c3d d937 eabd 6805 cebd 8bdc f4bc
00000170: 44fa b3bb 0ba5 ba3d 7088 3f3d 81be b0bd
00000180: 05bd f43c cb42 793d ab72 f53c 12bf 0b3c
00000190: d97d 3abd efe2 133c e804 42bd 2b9f 22be
000001a0: 81ce 2b3d e94d 813d d4cc 74bd ec10 873e
000001b0: d6a7 473d 2cb5 283d e2a5 2d3e c394 523e
000001c0: 50d6 2a3d af33 df3d 3d65 e33d 8c43 c23c
000001d0: 21dd 8ebd c309 71bd 00b8 19bc 3e91 023e
000001e0: 54b9 043d c5ba 183d 24d1 a7ba 3cd5 f93c
000001f0: dbdd c33d 3de0 853d 0b90 463e 2ece ac3d
00000200: 542c 0b3e 321c 063e 4fbc 05bd 3211 823d
00000210: 960e b63d c369 36bd 84ab 79bd cdcd 7e3d
00000220: 7c77 853d 187e 503d be98 9dbc d99b dabd
00000230: 57f6 2a3c 4e99 1b3e b8c5 323d 9fdd aabd
00000240: 579c a8bd 385a e3bd e8ab 943c 46a5 7f3d
00000250: 4d2d 6fbd 5214 903c a601 d73c 6b3d a4ba
00000260: 1da7 743c e230 a1bd ab2b d1bd 1eb6 03be
00000270: 2185 d7bd 72ab dabd a842 76bd 331b a53d
00000280: 4c8b 1cbe b2c7 c83d 1f1d 8ebd 9e68 5a3d
00000290: b450 d9bc 6ea9 ca3d c436 113d cbb4 c3bc
000002a0: 55a2 033d 3164 ae3d c5f2 20be ebb1 65bc
000002b0: 612b 243c ef16 55bc e9d0 a73d 73ac 74bc
000002c0: fb4a c1bd 4ddb 06bd 485f 83bd e02b 26bd
000002d0: 86f0 00bd fab3 183c 5520 5e3c b56f 363d
000002e0: 661c a53d 890b 35bd 5615 ba3c fc30 d3bd
000002f0: ede2 7fbd e48d 473d 20df 013d 6d3c 5cbd
00000300: 7e94 c43c 1602 733c 10fb 173d 547c b8bd
00000310: 29c5 dd3d ea2a 94be 3766 3bbd 0736 9fbe
00000320: d2d1 50bd 13fd 263d 10e9 dbbc daa7 49bc
00000330: 0135 babc 19c1 833d 4817 0e3d ec3f 8bbc
00000340: ddaf d9bd 2afd fe3c 8711 cf3d 9279 f3bd
00000350: 768c 91bd 9994 e63c b9d8 07be 2567 4a3e
00000360: 57fe 65bd f6dd 003e 294e cdbc 1de6 8c3c
00000370: 59ac af3d 1c6a 05bd e49d c83d 500c d83c
00000380: 4291 f53b d26d 26be 5e77 b63c 6e4b 04bd
00000390: 6692 323a 58eb 1d3d 8f82 99bd f16a 7f3d
000003a0: 1f5a 5cbd 009e a03d 07f2 47bc 9409 f93d
000003b0: e2ce 6abd 7952 6fbe fb3f 4fbd b1e5 04bc
000003c0: 291d 653d e73a 03be 7b9c a4bc cbc6 63bd
000003d0: 298b 093d f16c 5abd 2dc6 9e3d 593f e03d
000003e0: 7458 19be fe87 963d 4aaa 3bbd 1057 823d
000003f0: ec59 8b3d 5a60 febd 8079 ecbb b164 80bd
-0.044293996 0.032051653 -0.099136926 -0.083914 0.047135208 0.030026428 -0.048454933 0.0034925
-0.19473228 0.01689619 -0.09030877 0.053413954 -0.097049356 -0.008530475 -0.031472042 -0.021267248
0.0057126004 -0.044425555 0.02786596 0.07420254 0.094363 -0.010997592 0.09094101 0.051708143
0.09217181 -0.094050586 -0.04680408 -0.011861041 0.025986679 -0.16310157 -0.017116627 -0.10559403
0.016090872 0.13025868 0.06432429 -0.18376432 0.038883913 -0.0840637 0.0047527137 -0.07416088
-0.036872104 -0.0823533 -0.062006664 -0.072734274 -0.055116422 -0.17771405 -0.039953545 -0.22584288
0.048145905 0.04046306 -0.008600591 0.15922491 -0.10864332 -0.08422154 0.06712104 -0.053593256
0.020407686 -0.0695609 0.051950164 -0.096361265 0.058928512 0.10876071 -0.12669611 -0.041477986
-0.10248777 -0.04085933 -0.06355326 -0.04029021 0.15557422 0.01334206 -0.09547308 0.14321329
0.09713359 0.032366287 0.04330711 -0.11434248 -0.18142521 0.028947782 0.06831396 -0.058237977
-0.052130617 0.043860473 0.017131835 -0.09244382 -0.028034966 0.039267648 -0.08377648 0.16404286
0.046101674 -0.11436433 -0.10059625 -0.02989032 -0.0054924805 0.09113511 0.046760976 -0.08630086
0.029875288 0.060854714 0.029961905 0.008529441 -0.045530174 0.009026273 -0.04736796 -0.1588103
0.041944984 0.06313688 -0.05976565 0.26380098 0.048744045 0.041188404 0.1695781 0.2056456
0.04170829 0.1089853 0.11103294 0.02371385 -0.06975771 -0.0588472 -0.009382248 0.12750718
0.032403305 0.037287492 -0.0012803418 0.030497186 0.095638 0.06536911 0.19390886 0.08437763
0.13591129 0.13096693 -0.03265029 0.06350936 0.08889501 -0.044534456 -0.060954586 0.062207986
0.065169305 0.050901502 -0.019237872 -0.10674257 0.010434709 0.151952 0.04364559 -0.08343052
-0.082329445 -0.11101192 0.018148378 0.062413476 -0.05839281 0.017587814 0.026245903 -0.0012530511
0.014932421 -0.07870652 -0.10213407 -0.12862441 -0.10523439 -0.10677232 -0.060122162 0.080618285
-0.15287513 0.09803714 -0.06939148 0.053322427 -0.02652774 0.098955974 0.03545262 -0.02388992
0.032137234 0.08515204 -0.15717609 -0.01401947 0.010020108 -0.013005956 0.08194143 -0.014933693
-0.094381295 -0.032923985 -0.06414658 -0.040569186 -0.03147938 0.0093202535 0.013557513 0.044540126
0.08062057 -0.044200454 0.022715252 -0.103120774 -0.062472273 0.0487193 0.03170693 -0.053768564
0.023996588 0.01483204 0.037104666 -0.09008089 0.10828621 -0.2893899 -0.045751777 -0.31095907
-0.05098135 0.040768694 -0.026844531 -0.012308085 -0.022730352 0.06433315 0.03469017 -0.016998254
-0.106292464 0.031126577 0.10110765 -0.11888422 -0.07106869 0.028147029 -0.13266267 0.19765909
-0.05615076 0.12584671 -0.025061684 0.01719957 0.085777946 -0.032571897 0.0979574 0.026373059
0.0074941227 -0.1625283 0.022273716 -0.032298498 0.0006811976 0.03855452 -0.07495605 0.062357847
-0.053796884 0.07842636 -0.0122037 0.1216003 -0.057326205 -0.23371305 -0.050598126 -0.008111403
0.055936012 -0.12815438 -0.020094147 -0.055609506 0.03357998 -0.05332655 0.07752643 0.109495826
-0.14975148 0.07350157 -0.045816697 0.06364262 0.068042606 -0.12420721 -0.0072166324 -0.06269205

lstm.weight_hh_l0 f4 [512, 128]
00000000: f9b4 11be 5b99 b3bd 56db 043e 02df 56bd
00000010: 8fb5 0cbe 2247 33bd f165 023e ca9c 0abe
00000020: 1b19 e5bd 9484 7d3c 205c 173e 484f acbc
00000030: 3b14 7a3d 289d 6c3d db64 893d 9306 0d3e
00000040: 95a9 ff3d ee9d a73d d74b aa3d 2969 883c
00000050: 0ccc cbbd 4beb 413d 1bbe 89bd 4d7d 73bd
00000060: 9230 0fbd 210c d63c 5a53 663c 4520 763b
00000070: 64ab 583c d7e3 28be ba21 f33d 43b6 93bd
00000080: 75af 4b3e ebd9 e3bc cb5f 3e3d 65df 28bd
00000090: 1ce2 e7bc faf4 4f3d 88fd 08be 22db 19be
000000a0: 447a 523d 686a b2bd 2b95 c1bd 45b7 94bd
000000b0: 1507 113e d8d0 573e d888 18be c016 8cbc
000000c0: 7091 603e d2b2 2b3e 0062 d5bb 77fc 75bc
000000d0: 8498 f6bc 5dcc d03d 6d5c 94bd 5820 6b3d
000000e0: e44b 4dbe 594b a3be 2c27 e4bd 78a7 073e
000000f0: face 74bd 8e6a 743e 447c 313e dc5a cfbc
00000100: 5668 42be b818 0f3e f2a1 293d 1236 153e
00000110: fca0 0bbb 5eb3 263e b37f fdbc ee60 573b
00000120: d182 79bd 79ad f5bd 8565 b93d 827f 8abe
00000130: c75a 113e 7b9f 12bd 4fce 2d3c b52b 66bd
00000140: 58fe 603c f834 10be f695 8a3a c011 e43d
00000150: 4395 cebc c1c8 ca3d 1838 303e e358 0f3d
00000160: 378d bdbd f7b9 a5bd 7b57 813c f488 ecbc
00000170: 7b47 7ebd 3477 8dbd 83e1 cd3d 7fec 0b3d
00000180: 1f0c 8bbb 7354 8abd 74e6 7f3b cbb2 a0bc
00000190: be58 1dbe 0627 f1bc a798 d3bd 950a 9f3d
000001a0: 8586 4e3e 6c78 f73d 5250 a93d 4c0c 56bd
000001b0: 1911 e1bc 944b 47bd 1a70 283d 9d28 2abc
000001c0: d49a c4bc f179 533d 7814 45be fc38 bfbc
000001d0: e454 c73c cc00 003e 5abc 63bd fc7d 27bd
000001e0: 54cd 163c 97e4 22be 137e b0bd 1641 0b3c
000001f0: dbf7 413d 97a4 953e 2cd6 e23d 12f0 713d
00000200: 3a70 92bc 1d9c 4e3c f2e9 143e 6b52 1cbc
00000210: 2fba c03d 4596 053e 4155 6a3d 6931 ac3d
00000220: 4dc8 47bd 2a4e a8bc bf4e 343e e6bd d43d
00000230: c2c5 b4bd eb36 eabb a559 db3c 7226 cc3d
00000240: 2097 543d b7b6 babd 8056 0a3e 54d6 2a3d
00000250: 8401 ed3b 1bad 313e 8420 84bc 058c 25bd
00000260: cfa2 db3c 7149 d0ba 3157 143e 37dd 30bd
00000270: ec31 11be 9774 c6bd 1455 b9bb 9a66 86bd
00000280: 1d52 583d 789c 4b3c 98c5 163d 910b 02bd
00000290: d26c b3bd 616b 123e ffe7 da3d e100 cbbc
000002a0: 6cce 7ebb dd62 5cbd 286c 193d 8c54 033c
000002b0: ca56 22be 8244 863d 0d9f 073d 1325 373c
000002c0: 01dc 4d3e c887 a5bc ee9f 073d e62c d93d
000002d0: 137c 7a3c c39f 823c 19f9 3fbd ab8e debd
000002e0: 09bc 59bc 961c d2be fd02 0a3e a446 8b3c
000002f0: 67cc 81bd f67b 203e 3d9a df3c 16df a93c
00000300: ff03 99bb d7c1 e1bd 21e8 07be 1823 7c3d
00000310: 0c68 db3d e3e7 c7bd 2733 a23d b93f de3d
00000320: 3c15 f93c 3588 d03d 5f87 7a3c 24de 22be
00000330: da62 bebd 0ebe ae3c f7c0 8cbd f8ad 243d
00000340: 83cf 30bd face 86bd 967a 943d 0f44 13bd
00000350: 122d e23d 2cf1 343c b2f0 2bbe b37f 823d
00000360: cd4a 7ebd e4ef 46bd 7948 febd 7e92 a7bc
00000370: 8a67 6bbd c604 8abd 2326 a23d 44e2 643d
00000380: d5da 363d 6224 ea3c 6e8f 58bc 50c8 713d
00000390: 4521 5dbc 7e22 0c3e 9f20 273c 8749 93bd
000003a0: 3e7d 6abd 5478 c03c ebf6 243d 6ffa 2dbd
000003b0: 44b3 cf3d db1f 4e3d 1fb9 5dbc 88ee cbbb
000003c0: 5e53 a43d 9c2d a63d 2332 b3bc 3dfe f7bb
000003d0: e7bc 2d3d 5920 e4ba d405 2b3c f27b 03bd
000003e0: 1da6 40bd 9408 25be b72e c2bd 4a2e 1b3d
000003f0: 6794 973d 2d82 0e3d 5b0b 233e c80e 85bd
-0.14229192 -0.087694846 0.12974295 -0.05245877 -0.13741134 -0.04376901 0.127342 -0.13536373
-0.11186429 0.015473504 0.14781237 -0.021033898 0.06105445 0.057767063 0.0670869 0.13772039
0.12483517 0.081844196 0.083152466 0.016651707 -0.09951028 0.047343533 -0.06725713 -0.059445668
-0.03495843 0.02612883 0.0140579585 0.0037555855 0.013224456 -0.16493164 0.11871667 -0.07212498
0.1989115 -0.027813872 0.046478074 -0.04122867 -0.02830606 0.050770737 -0.13377964 -0.15024999
0.051386133 -0.08711702 -0.0945228 -0.072615184 0.14162858 0.21075761 -0.14895952 -0.017100692
0.2193048 0.16767433 -0.0065119267 -0.015013806 -0.030102022 0.10195229 -0.07244191 0.057403892
-0.20048481 -0.31893423 -0.11140284 0.13247478 -0.0597677 0.23868772 0.1733256 -0.02531188
-0.18985114 0.13974273 0.04141421 0.14571407 -0.002130567 0.1627936 -0.03094468 0.003286417
-0.060915772 -0.11995978 0.090525664 -0.27050406 0.14194785 -0.035796624 0.01060827 -0.056194026
0.013732515 -0.14082706 0.0010573256 0.11136198 -0.025217658 0.09901572 0.17208898 0.03499688
-0.0925545 -0.080921106 0.015788784 -0.028873898 -0.062079888 -0.06907502 0.100527786 0.034161087
-0.0042433883 -0.06754389 0.0039047273 -0.019616505 -0.15365884 -0.029437553 -0.103318505 0.0776569
0.20168503 0.120835155 0.08267273 -0.05225782 -0.027473973 -0.04865606 0.041122533 -0.0103856595
-0.023999609 0.051629964 -0.1924609 -0.023342602 0.024332471 0.12500304 -0.055599548 -0.040891632
0.0092042275 -0.15907513 -0.08617797 0.008499404 0.047355514 0.29227135 0.11076006 0.05906684
-0.01787578 0.0126104625 0.14542368 -0.009541134 0.09410512 0.13045605 0.05721021 0.08407862
-0.048775006 -0.020545084 0.17608164 0.10387783 -0.08826782 -0.00714766 0.026776144 0.0996827
0.051901937 -0.09116881 0.1350956 0.041708305 0.0072328467 0.17351191 -0.016128786 -0.040416736
0.026811032 -0.0015891028 0.14486386 -0.043179717 -0.141792 -0.096902065 -0.005655894 -0.065625384
0.052812684 0.012427442 0.036809534 -0.03174931 -0.0876099 0.14298774 0.10688781 -0.024780693
-0.0038880361 -0.05380522 0.03745666 0.008015763 -0.1585342 0.065560356 0.033110667 0.011178273
0.20103456 -0.020206347 0.033111505 0.10604267 0.015288371 0.015945321 -0.046868417 -0.108670555
-0.01328946 -0.41037434 0.13477702 0.017001458 -0.06337815 0.15672287 0.027295226 0.020736258
-0.004669666 -0.110233 -0.13272144 0.061556906 0.10713205 -0.09761026 0.07919913 0.10851998
0.030405633 0.101822294 0.015291064 -0.15905052 -0.09296198 0.02133086 -0.068727426 0.040204972
-0.04316665 -0.065824464 0.07249944 -0.035953578 0.11043753 0.011043828 -0.16791037 0.06372013
-0.062083054 -0.04856862 -0.12416167 -0.020455595 -0.05747179 -0.06739192 0.0791743 0.055879846
0.04464229 0.028581802 -0.01321779 0.059028924 -0.013496702 0.13685033 0.010200649 -0.071917586
-0.057248347 0.023494877 0.04027454 -0.04247516 0.10141614 0.05032335 -0.013532906 -0.0062235035
0.080237135 0.08114168 -0.021874493 -0.0075681494 0.04241648 -0.001740466 0.010438401 -0.032100625
-0.047033418 -0.16116554 -0.094815664 0.03788594 0.074013524 0.034792114 0.159223 -0.0649696

lstm.bias_ih_l0 f4 [512]
00000000: 1931 88be 975f f1bd 4e23 ecbd f397 25be
00000010: 5ab0 9cbd 0456 c1bd 577a 85be 007f 25be
00000020: c3d8 9bbe 8951 86be ba29 93be 3c47 8bbe
00000030: 2bf5 83be 949b 9fbe c1fb afbd 2d4a d9bd
00000040: 8715 7abe 421a 98be 5468 92bd e718 2cbe
00000050: e69e 81be 4265 a4be a9f6 fbbd 4e83 81be
00000060: 30c8 81be 1e46 86be a4b3 eabd 3957 18be
00000070: 3066 67be 8a26 60be df2f a0be 0e24 24be
00000080: c0c8 7ebe 2fa1 86be 5b1a 5cbe 554b 89be
00000090: dcd8 57be d855 9cbe 4029 84be f5bd 87be
000000a0: 0eee 1abe 96a2 46be 2e00 95be ac26 9abe
000000b0: 8c70 21be d50b e3bd 5a92 87be a66f 8dbe
000000c0: 7657 a9bd 5f74 71be ad9d 70be 41e5 0cbe
000000d0: 509c 2ebe 7d4f 02be 0d01 e3bd 1b86 89be
000000e0: 17c8 e2bd 4e41 81bd 2f38 5cbe e582 01be
000000f0: f930 59be 0967 33be 7a4c 19be d62e 44be
00000100: f149 7cbe 325e 9cbe 4056 48be 4d9f 81be
00000110: ad69 75be cf2f 5cbe 3bd2 91be db1f 91be
00000120: 8e43 8dbe e6a2 80be a1da 93be 1e68 abbd
00000130: ddbe 95be 837e 23be be63 a4be fc0e 7abe
00000140: 1c96 47be be78 66be 44a1 a1be 2570 01be
00000150: f2e5 8ebe 7bfe 36be 0a1d 67be 843a 62be
00000160: 5c7f 47be b92c e6bd 3472 30be 574e 19be
00000170: 6e36 19be 1ecf 37be bcff b4be d44a 88be
00000180: ffb6 98be 01f7 9dbe 3969 6cbe 021e 68be
00000190: 1454 a7be 8e16 3bbe a040 67be a56a 90be
000001a0: cb71 49be 4d7f 3ebd a457 4abe f156 06be
000001b0: 5200 adbe 360a 8fbe d93a 96be e39a 3bbe
000001c0: 2fb2 67be b703 80be 91b1 6bbe 7430 7ebe
000001d0: e793 6fbe b390 4cbe b2f7 86be 903e c2bd
000001e0: 43f7 71be a5d7 3fbe dce2 a6bd 1568 78be
000001f0: c507 febd 932e 8bbe 8760 18be f4ef 2abe
00000200: 09be b3bd 3f80 123d aba9 043e 2241 75be
00000210: 7f2f 0c3e 3df1 fa3c 02b4 f1bd 9ff3 14be
00000220: 6409 ecbc d09a 11be 15ae 81be c1b5 46be
00000230: 0b68 57be fd8c 41be 70f5 cfbc 8963 9cbd
00000240: cddb 3cbe a110 94be 4ca0 6dbd 82ac e9bd
00000250: 3480 933d b208 78be 187b b9bc 6758 853c
00000260: 4cf9 2dbe 8805 53bd cb55 bfbd 6636 a23c
00000270: 604b 80be c32e c2bd a21f 22be 010b 95bd
00000280: 8564 40be a0d7 8d3d 0628 9ebd 0999 8ebe
00000290: 2c0a 84bd 7545 57be 6285 95be 69a4 29be
000002a0: cd07 39be 42ed 14be f332 d6bd 36b1 95be
000002b0: 71e6 c8bd e161 83bd 7402 5c3d 80d4 8dbe
000002c0: 7723 cd3e 513f 51be 00f5 76be c035 10be
000002d0: a85d bc3c ba79 c13d 7fea 823c b4e5 b9be
000002e0: 329c 9bbd 869d 343e 975b 32bd d691 8fbb
000002f0: f5cb 29be a6c3 413d 1cf9 86bd 42e1 5bbe
00000300: 57a0 46be ee79 f5bd 1ab9 17be ef13 29be
00000310: 478c 39be c991 43be d80a 0dbe ab2b 0fbe
00000320: cf82 afbe 71fa 45be da6a 5cbe e26b 083e
00000330: 0160 90bd 246c d13b 0d74 02be 9e4a 4dbe
00000340: e038 04be 38dc 3dbe a899 3abe 1624 23be
00000350: cf1f 72be ba63 eebd a3c3 77bd 0088 03be
00000360: cc01 57be cc20 07be 7c0e 2f3d 7f29 23be
00000370: b0f0 b4bd 3f9e cebc 7a06 193d d521 24be
00000380: 1e59 5dbe 2786 cc3d 1338 88be 8d05 3bbe
00000390: 2b85 4bbe 32b6 983e ebfb 24bb 58c9 a7be
000003a0: 3b52 18be 727a 05be 5ee8 ebbc 5384 9ebd
000003b0: 34a1 0dbe f1df 1cbe e245 52be 43d8 02be
000003c0: f0d7 49be f0a0 63be b5cf e6bd 3dd2 13bd
000003d0: 1dc1 66bd 2124 51be 2de8 823e 21be 73be
000003e0: 5176 d23d 02cb a73d 2e36 a23c 9a51 4abe
000003f0: 8f94 b3bd 2ae2 413e 8fc7 b63d 3bb3 e4bd
-0.2659996 -0.117858104 -0.11530171 -0.16171245 -0.07650824 -0.09440234 -0.260699 -0.16161728
-0.30438814 -0.2623408 -0.28742772 -0.27202785 -0.25772986 -0.31173384 -0.0859294 -0.10609851
-0.24422275 -0.29707533 -0.07148805 -0.16806374 -0.25316542 -0.32108504 -0.12302906 -0.2529549
-0.25348043 -0.2622537 -0.11460045 -0.14877023 -0.22597575 -0.21889701 -0.31286523 -0.16029379
-0.24881268 -0.26294848 -0.21494429 -0.26815286 -0.21078819 -0.30534244 -0.2581272 -0.26512113
-0.15129873 -0.19397959 -0.291017 -0.3010763 -0.1576559 -0.11086241 -0.26478845 -0.27624243
-0.08268635 -0.23579548 -0.23497649 -0.13759328 -0.17051816 -0.12725635 -0.11084185 -0.26860127
-0.1107332 -0.06311284 -0.21505807 -0.12647589 -0.21210088 -0.17519774 -0.1497058 -0.19158491
-0.24637581 -0.30540615 -0.19564152 -0.2531685 -0.23966093 -0.21502613 -0.28480706 -0.28344616
-0.27590603 -0.25124282 -0.28877738 -0.08369468 -0.2924718 -0.15966229 -0.32107347 -0.24419779
-0.19490856 -0.22506997 -0.31568348 -0.12640436 -0.2790981 -0.17870514 -0.22569671 -0.22092634
-0.19482177 -0.11238999 -0.17231065 -0.1497129 -0.1496217 -0.17950103 -0.3535136 -0.2661959
-0.29827115 -0.30852512 -0.23087014 -0.22667697 -0.32681334 -0.18270323 -0.22583246 -0.28206363
-0.19672315 -0.046508122 -0.19759995 -0.13119103 -0.33789307 -0.27937478 -0.29341772 -0.18320803
-0.22626565 -0.25002834 -0.23016955 -0.24823171 -0.23396264 -0.19977073 -0.26360852 -0.09484589
-0.23629479 -0.18734606 -0.08148739 -0.24258454 -0.12403826 -0.2718397 -0.14880572 -0.16693097
-0.08776481 0.035766836 0.12955348 -0.23950627 0.13689993 0.03063261 -0.11801912 -0.14546059
-0.028813072 -0.14219213 -0.25328127 -0.19405271 -0.21035783 -0.18901439 -0.025385588 -0.07636172
-0.18443222 -0.28918937 -0.0580142 -0.114098564 0.07202187 -0.24222067 -0.022641703 0.016277505
-0.1698963 -0.051518947 -0.093425356 0.01980133 -0.25057507 -0.09481575 -0.1583238 -0.072774895
-0.18788345 0.06925893 -0.077224776 -0.27851132 -0.06447253 -0.2102259 -0.29203326 -0.16566624
-0.18069382 -0.14543632 -0.104589365 -0.29236764 -0.09809578 -0.06415153 0.053713277 -0.27701187
0.4006612 -0.2043431 -0.24116898 -0.14083004 0.022993878 0.094470456 0.015980957 -0.36308062
-0.07598151 0.17638215 -0.043544378 -0.0043813987 -0.1658171 0.047305726 -0.065904826 -0.21472648
-0.19397102 -0.11986147 -0.14816704 -0.1651151 -0.18119918 -0.19098581 -0.13773668 -0.13981502
-0.34279487 -0.19333817 -0.21525136 0.13322404 -0.07049561 0.006391065 -0.12739582 -0.20047995
-0.12912321 -0.18541038 -0.18222678 -0.15931734 -0.23644947 -0.11640115 -0.060489308 -0.12844849
-0.20996779 -0.13196105 0.042738423 -0.15933798 -0.0883497 -0.025221942 0.037359692 -0.16028531
-0.21616027 0.09986525 -0.2660528 -0.18263836 -0.19875018 0.29826504 -0.002517457 -0.327708
-0.14875118 -0.1303499 -0.028797325 -0.077400826 -0.13831025 -0.15319802 -0.2053447 -0.1277781
-0.1971128 -0.22229362 -0.11270086 -0.03608917 -0.05633651 -0.20423938 0.2556776 -0.23802997
0.10276473 0.081930175 0.019801226 -0.19757691 -0.0876857 0.18933931 0.089247815 -0.11166998

lstm.bias_hh_l0 f4 [512]
00000000: 80e3 39be 4c52 4fbe 8de4 77be 1ca0 3dbe
00000010: afc2 bcbb f871 0bbe 4e8e dbbd afe5 78be
00000020: 56ed 22be 479e 6bbe 93bb 5fbe 3572 3fbe
00000030: 23cf 41be 9a8b 62be 47d2 90bd e7fc 4ebe
00000040: 4920 a3be 36fa 89be 53a3 08be 566c 80be
00000050: e7a9 0cbe 67f7 abbe d303 103d ec0c 62be
00000060: a810 eabd 33d6 8cbe 7537 87be 12a5 fabd
00000070: a126 3fbe 5700 f7bd cc99 91be 58f2 a0bd
00000080: 3fa5 0ebe 6291 91be dc51 12be 8c2d 26be
00000090: 30ff a0be 4f84 86be de1a 80be 79bd 89be
000000a0: be0d 62be 2e3c 48be a9ff 57be 509f 84be
000000b0: e7a1 86bd b959 6cbd 65e4 80be d40f 62be
000000c0: 0959 39be 224f 5dbe d96b 8bbe 3833 54be
000000d0: dedc 71be 3c00 53be 77f4 5dbe 3d67 96be
000000e0: 07f9 41be c653 49be baef 97bd a148 77bd
000000f0: 7458 18be 55ae d7bd 3cd2 4ebe 0ce1 91be
00000100: 8fb5 25be 1653 9abe 9961 91be 7adb 36be
00000110: d711 6fbe 9db3 a8be 9079 89be 5b93 6fbe
00000120: f10e 8cbe a569 b0be 05e5 bdbe c060 28be
00000130: 150b 1fbe 4518 19be d59e a5be 85a4 8dbe
00000140: 3a97 51be 8578 9dbd 90fd 70be 31a3 c9bd
00000150: c132 92be 0eca 72be 25f5 3bbe 214e a3be
00000160: 1a47 a3be 9c1f 1cbe ebe7 22be 5a5b 44be
00000170: c1e5 99be 7d43 94bd 9e5c 8dbe 94cb 89be
00000180: 25dd 9cbe ba2a acbe 8730 23be 8a60 79be
00000190: adda 2ebe 0932 e5bd 2319 8cbe 37b0 acbe
000001a0: e113 97be 77f2 47bd 92ef 71be 19d6 25be
000001b0: c72a 3fbe a46d 8cbe 131b 88be 4269 81be
000001c0: 2e44 cfbd 2b49 4ebe 7e81 acbd 33dd 08be
000001d0: d614 98be a1a9 2ebe 2426 9fbe 23ff cabd
000001e0: 6485 8dbe 3843 2dbe 0f98 11be f687 66be
000001f0: b3cd 48be 3576 3abe a5eb 0abe a61c 5bbe
00000200: 6af6 4fbe 050b 33bc f365 913d 5d35 b6be
00000210: fd28 f23d 42e4 babc b709 d5bc 004f 67be
00000220: 32fa 34bd 68fc 2bbe f2de 82be 9d8e 77bd
00000230: e438 26be ffe5 42be d76b 22be 5af7 e8bd
00000240: b236 0cbd ee03 8abe ddea 7d3d 1702 38be
00000250: 777d 013e 2647 0ebe 35f5 f83a eb30 09be
00000260: 352f b8bd 2ee6 66bd 10a2 25be aace 10be
00000270: 66c3 a3be d7e2 abbb e881 69be 3b6b 20be
00000280: c7c2 a8bd 77c6 043e db7a b53c f8e7 62be
00000290: f8c3 96bc 3893 d3bd 89ef 87be 341e 33be
000002a0: 403d 79bd 856e 1bbe 96b9 05be f52e 1ebe
000002b0: 462d 11be 715a 87bb 240d 38bd 7ce5 34be
000002c0: 754c c23e 44fb 45be db2b 8cbe 5ddb 8abd
000002d0: 817d db3c d4e0 853d e734 cfbd ec20 c2be
000002e0: c906 60bd e23b 0c3d cbc6 0ebe 621e d2bc
000002f0: 55cb ecbd 5174 783c d592 37bd 4bbe 29be
00000300: e658 c6bd d908 cfbd aac2 66bd 0c75 94bd
00000310: 1892 28be 6edc 88be 09a7 0f3c 6ecc cabd
00000320: 8f36 cfbe 953a 50be bb41 07be 2203 f8bc
00000330: 3b32 8bbd 7ee8 cbbd c201 abbd 0788 93bd
00000340: be10 2cbe b35b 36be 1ea1 8cbd c301 43be
00000350: 7231 a1bd f169 55bd 05af a7bd 80b7 e0bd
00000360: 9396 77be bc4b c0bd b65d 6abd 8c20 b6bc
00000370: 4c4f 43be 63b7 0ebc 95b4 2d3d a5ca a3bd
00000380: 788e 55be ad0a f53d 6140 7cbe af7f 3ebe
00000390: 8187 45be 93d2 3c3e 70fb ddbd 916d abbe
000003a0: 675e 98bd 648f 05be 3a96 fcbc ecf9 54be
000003b0: c07d 5fbe f78c 53be c80c 5dbe 1d55 49be
000003c0: a3ae 6fbd 94ac 66be feee 31be ca9b 62bd
000003d0: 1b06 20be 1c20 1cbe 8559 5b3e 6905 8bbe
000003e0: 5d8e 2abc e3cc a33c 8dc5 42bc f4aa 60be
000003f0: 4101 aabd 9c75 133e 0973 5b3d 4f98 1dbe
-0.1815319 -0.20246238 -0.24208279 -0.18518108 -0.005760513 -0.13617694 -0.10720502 -0.24306367
-0.15910849 -0.23009597 -0.21848898 -0.1869591 -0.18926673 -0.22123566 -0.07071357 -0.20213662
-0.3186057 -0.26948708 -0.13343553 -0.25082654 -0.13736688 -0.3358719 0.035159897 -0.22075242
-0.11428958 -0.2750717 -0.26409498 -0.12238516 -0.1866708 -0.12060612 -0.2843765 -0.078587234
-0.13930224 -0.2843123 -0.1428904 -0.16228312 -0.31444693 -0.26272818 -0.25020498 -0.2690237
-0.22075555 -0.19554207 -0.2109362 -0.25902796 -0.06573849 -0.057702754 -0.2517425 -0.2207635
-0.1810037 -0.21612218 -0.2723072 -0.20722663 -0.2361941 -0.20605558 -0.21675287 -0.2937564
-0.18942653 -0.19660863 -0.07418771 -0.060372 -0.14877492 -0.10531298 -0.20197386 -0.2849201
-0.1618254 -0.30141515 -0.28394774 -0.17857161 -0.23346649 -0.32949534 -0.26850557 -0.23396055
-0.2735515 -0.344556 -0.3708879 -0.16443157 -0.15531571 -0.14950664 -0.32347742 -0.2766458
-0.20467845 -0.07689003 -0.23534226 -0.098455794 -0.28554347 -0.2370989 -0.18355234 -0.31895545
-0.31890184 -0.15246433 -0.15908782 -0.19175473 -0.300581 -0.07239435 -0.27609724 -0.2691313
-0.3063747 -0.33626348 -0.1593648 -0.24353233 -0.17075606 -0.11191184 -0.27362928 -0.3372819
-0.29507354 -0.048815217 -0.23626545 -0.16194953 -0.18668662 -0.274274 -0.26583156 -0.25275618
-0.10120426 -0.20145099 -0.08423136 -0.13365631 -0.29703397 -0.17056896 -0.31083786 -0.09911945
-0.2764083 -0.16920173 -0.14218162 -0.22512802 -0.19609718 -0.18209155 -0.13566454 -0.21397647
-0.20308843 -0.01092792 0.070995234 -0.35587588 0.11824224 -0.02281392 -0.026005609 -0.2258873
-0.044183917 -0.16795504 -0.2556072 -0.06043874 -0.1623264 -0.19033049 -0.1586145 -0.113753036
-0.03423185 -0.26956123 0.06199156 -0.17969547 0.12645517 -0.13894328 0.0018993976 -0.13397567
-0.08993379 -0.05637186 -0.16175103 -0.14141336 -0.31985015 -0.0052455473 -0.22803462 -0.15665905
-0.08240276 0.12966333 0.022153309 -0.22158802 -0.018403992 -0.10330814 -0.26549938 -0.1749199
-0.06084943 -0.15178879 -0.13059077 -0.154476 -0.14177427 -0.0041306545 -0.044934407 -0.17665666
0.37948957 -0.19334131 -0.2737721 -0.067801215 0.026793243 0.06537023 -0.10117512 -0.37915742
-0.05469397 0.034236796 -0.13943021 -0.025649253 -0.1156222 0.015164451 -0.044817764 -0.16576497
-0.09684925 -0.101091094 -0.05633799 -0.072488874 -0.1646198 -0.26730675 0.008767852 -0.09902273
-0.40471312 -0.20334847 -0.13208668 -0.030274931 -0.0679669 -0.09956454 -0.08349945 -0.072036795
-0.16803262 -0.17808418 -0.06866668 -0.19043641 -0.07870759 -0.052102987 -0.08187679 -0.109725
-0.24178533 -0.09389445 -0.057218276 -0.022232316 -0.19073218 -0.008710715 0.042408545 -0.07997636
-0.20855129 0.11964927 -0.24633934 -0.18603395 -0.19289972 0.18439703 -0.108389735 -0.3348203
-0.07439881 -0.1304298 -0.030833352 -0.20798463 -0.21825314 -0.20659243 -0.21586907 -0.19661374
-0.058516156 -0.22526771 -0.17376325 -0.055324353 -0.15627329 -0.15246624 0.21420868 -0.27152565
-0.010409919 0.019995159 -0.01188792 -0.21940213 -0.083010204 0.14400333 0.053576503 -0.15390132

fc1.weight f4 [64, 128]
00000000: 65d0 343a f536 2ebb b2ea 08bc 378c 363d
00000010: c120 87bd 9f24 ecbd 9734 83bd 9220 933b
00000020: b9cf 11be 000f 2a3d 9bd2 853a c3b2 7fbc
00000030: 27cb b03d 351a 39bd ed7c dd3d f319 d5bc
00000040: f7ba ba3d 1216 4a3d fb40 643d 2b69 43bc
00000050: ddcb c13c 3d54 bcbd f6fd a73d 8dfc 4bbc
00000060: ada0 8c3a 750d d4bd eec4 88bd 4b60 153b
00000070: 4634 c53c 1e72 56bd 7fc1 a1bc a14b 4a3d
00000080: aaee f73c 8bd5 6ebd 3b44 a63d 5e98 60bd
00000090: 1e92 b9bd 90b9 843d 9ce0 863d 323a 9a3d
000000a0: af2f 903d 5c9f a7bd 759a 413d 05bc 40bd
000000b0: 7268 603c d087 77bc a11b 80bd 6812 febc
000000c0: c046 063e df47 a63d 361b aa3d ca6c 883d
000000d0: 99f3 a63d 460e 223d 4ea6 d3bc 5f59 5b3c
000000e0: e813 16bd d63a 42be 18f5 0d3d 5eda 743d
000000f0: 99cd a1bd 925b e8bc 9b54 1c3d 1977 23bd
00000100: 5a05 95bd 95de 9a3d 6725 c6bc 35c7 34bd
00000110: 54e2 ad3c 916e b53c d1bc 9dbc 3fc4 363e
00000120: f8e3 6dbd 8313 a2bd b0c5 83bc 62f3 893d
00000130: 596f bdbc c610 0839 0d90 613d 6a42 373d
00000140: 8a76 3cbd ada9 b5bc f85a 363d 8eda e43c
00000150: d982 873d 3161 a0bd c8f5 103c 18e4 18be
00000160: 6152 b83c bf82 06be b2cd 69bb 7642 eebd
00000170: 8e27 3ebe 5ad5 f63c b1e9 633e 025e 873d
00000180: d38c ac3b 3f20 cf3d 28d4 e63c 99ea cb3c
00000190: 2aba 81bd dcb3 42bd a36a de3c f714 f2bc
000001a0: 7cfc ce3d 8c14 c63d 925d 5b3d 8f09 57bd
000001b0: 5ff6 4ebd ff09 c0bc 0259 f83c 1cbb 01bd
000001c0: ee8e 1a3e e63a d9bc 53e4 c0bd 7544 3dbd
000001d0: 52c9 62bc 11b7 2a3e 0d4b 90bc 948d f2bc
000001e0: b051 46be 4ae1 85bc 2755 13bd cb23 4ebd
000001f0: d80b 6fbd 8219 813c 7731 b1bc c4dc fdbc
00000200: 3593 cebd 9ea8 543d 88e3 43bd 8966 693c
00000210: 3d90 ecbc 70b5 ed3d 9304 7f3d 911a 303d
00000220: 80fc 93bc 3fa4 073d 9e2f 9c3d bf71 1abd
00000230: e73b 4abd 38e9 75bd cbaf 083e 470c bc3b
00000240: b5a0 563d 7c63 bfbc 1f3a 633d 9d44 59bc
00000250: af37 88bd 59a7 42bd 6d74 e53b 9ee5 bdbb
00000260: 18c2 e73c bc41 f4bc 584d 3d3c 3ab1 aabb
00000270: 7c1d 3e3c 5639 58bc 3801 07bd a8ee bbbd
00000280: 0e5e 83bc 1c74 423c 1b76 d53d 0d33 11be
00000290: 1eae 0cbd 7615 a13d 513c 26bd c4e4 053d
000002a0: 5362 15bd 32e2 97ba 149c 533d 4865 49bd
000002b0: 4983 003d 4440 1f3e e987 b13d 6cdf a73d
000002c0: 50d1 dc3d bf72 6dbc ed26 cdbd 1553 6ebc
000002d0: cc0b c5bd 23d7 9b3d 674a 70bd 7be9 69bb
000002e0: be04 3e3d 4e1f 16bc 0742 b2bd 745a 883d
000002f0: 0904 85bd fb53 8f3c 909a 0a3d 3cfe b6bd
00000300: 8f92 343d fcf4 e63c 7a80 a23d b77b 76bd
00000310: cfba b33d 55d8 123b 0821 72bc 8e0d c73c
00000320: 5a70 6d3c 7710 ce3c 4b0c 0c3b 8463 09bc
00000330: e186 b7bc e901 a53d eaf9 4abd 0fac b83b
00000340: c33d a63c e948 85bd 8bee 18bd 0483 b13d
00000350: 15c2 343d db2e 813d 99fd 31bd b217 b4bd
00000360: 45b9 213d 2278 d8bd a036 95bd 9229 b0bc
00000370: 9f60 12bd 0eda b2bd b4dc 903d a078 3cbd
00000380: 2fb7 1bbd a5d6 493c 7555 b8bd 3f83 8d3d
00000390: 26e2 733d 6812 27ba 98cd d4bd 83bc bbbd
000003a0: caab 7d3d f42f fc3d 9a77 01bd 4a2c 4fbd
000003b0: 5614 4d3d 8c68 a0bd 1137 5b3d dae3 a2bd
000003c0: 09c2 a53c c7b9 36bc eced 9dba b663 79bd
000003d0: 119d debb 5ce7 f53d 2210 49bc 6dbf 6fbd
000003e0: 8ea0 83bd 9713 c3bd 17ab 33bd 446f 243d
000003f0: a5cf fc3c 541b 263d d324 c03c 0099 8bbd
0.0006897508 -0.002658305 -0.008356737 0.044567313 -0.06598044 -0.115304224 -0.06406515 0.0044899667
-0.14239396 0.04151821 0.001020986 -0.015606585 0.08632498 -0.04519101 0.10814843 -0.02601335
0.09117692 0.049337454 0.055726033 -0.0119269295 0.02365678 -0.09195755 0.08202736 -0.0124503495
0.0010729037 -0.10354129 -0.06678186 0.002279299 0.024072777 -0.052354924 -0.019745586 0.04938853
0.030265171 -0.05830912 0.08118483 -0.05483281 -0.09061073 0.06480706 0.065858096 0.07530631
0.07040345 -0.08184692 0.047266442 -0.04705431 0.013696777 -0.015108064 -0.0625527 -0.031014636
0.13112926 0.08119177 0.08305971 0.06661375 0.08151931 0.039564393 -0.025836136 0.013388007
-0.036640078 -0.18967757 0.034657568 0.059778564 -0.07900543 -0.028363977 0.038166624 -0.039908502
-0.07276411 0.075619854 -0.024187757 -0.04413529 0.021226086 0.022147449 -0.019255074 0.178483
-0.058078736 -0.07913878 -0.016085476 0.06735875 -0.023124384 0.0001297622 0.05506902 0.04474107
-0.046011485 -0.022175634 0.04452035 0.027936246 0.06616754 -0.07831038 0.008847661 -0.14930761
0.022500219 -0.13135813 -0.0035675582 -0.1163377 -0.18569776 0.03013103 0.22257115 0.066097274
0.005265811 0.10113572 0.028177336 0.024892138 -0.06334336 -0.04753481 0.027150458 -0.029551012
0.10106751 0.09671888 0.053556032 -0.05249935 -0.050527927 -0.023442267 0.03031588 -0.031672582
0.15093586 -0.026517343 -0.094185494 -0.046207864 -0.013841944 0.16671397 -0.017613912 -0.029608525
-0.19367099 -0.016342778 -0.03596988 -0.050327104 -0.058360904 0.015759233 -0.021630032 -0.030989058
-0.10086671 0.05191862 -0.047824413 0.014245638 -0.028877372 0.11606872 0.06226022 0.042994086
-0.018064737 0.03311562 0.0762627 -0.037706133 -0.049373534 -0.060036868 0.1334831 0.0057387683
0.052399356 -0.023362868 0.05547535 -0.013260988 -0.06651246 -0.047522876 0.0070024044 -0.005795195
0.028290793 -0.0298165 0.011554085 -0.0052091153 0.011603709 -0.013197264 -0.032960147 -0.091763794
-0.01603606 0.011868503 0.104229175 -0.1417963 -0.03434574 0.078654215 -0.040584866 0.03268887
-0.036470722 -0.0011587797 0.05166252 -0.049168855 0.031375203 0.15551859 0.08668501 0.08196911
0.10782111 -0.01449269 -0.1001719 -0.0145461755 -0.09621391 0.076093934 -0.058664706 -0.0035692144
0.04639124 -0.009162737 -0.08704 0.066578776 -0.0649491 0.0174961 0.03383881 -0.0893521
0.04408508 0.02819299 0.07934661 -0.060176577 0.08775865 0.0022406776 -0.014778383 0.024298456
0.014492119 0.025154335 0.0021369632 -0.008385543 -0.022403182 0.08057005 -0.049554743 0.0056357454
0.020293122 -0.06508047 -0.037336867 0.08667567 0.044130404 0.06307765 -0.04345474 -0.08793582
0.039483327 -0.105697885 -0.072858095 -0.021504197 -0.035736676 -0.08732997 0.07073346 -0.046013474
-0.038016494 0.012319242 -0.09000675 0.06909799 0.059541844 -0.0006373287 -0.103907764 -0.09166815
0.06193141 0.12313834 -0.0316082 -0.050579347 0.050068222 -0.07832441 0.053519312 -0.079536155
0.020234125 -0.011152691 -0.0012049056 -0.060886107 -0.006793626 0.12007019 -0.012271913 -0.058532167
-0.06427108 -0.09525221 -0.043864336 0.040145174 0.030860731 0.040553406 0.02345506 -0.06816292

fc1.bias f4 [64]
00000000: 7313 debd f361 4a3e 66a1 a13e 5ac5 963e
00000010: 8907 5c3e fee1 423e 3cff e13d 2314 6f3b
00000020: 57de 7b3e 0f3f 0a3e 1c8d ac3d 8dc9 0c3e
00000030: 8081 e4be b2fd c33e 9686 46bd 2d7f 5f3e
00000040: 4fb7 483d 86b2 933e bc84 8a3e 4b17 aa3e
00000050: e97d 4d3e cce2 8c3e ad9a 883e 47dc 673e
00000060: 2c02 863e 72cb 883e 2c81 353e 5023 443e
00000070: 28a0 f3bd 0d72 923e b45c 363e 1a4f 8b3e
00000080: f04e ab3e c640 613e be43 29be 7061 9d3e
00000090: e2cd 953e eb90 1f3e 329c 5a3d f782 7d3e
000000a0: dea4 6c3e f018 b63e a22b 253d 1f41 99ba
000000b0: fcfc a33e 524f 983e 7b05 533c 9660 b03e
000000c0: 22fe 583e 850d 9b3e 838d 263e d643 993e
000000d0: 167e 913e 5eee 463e 1e1c 9d3e 9107 303e
000000e0: 262f a63d f3d5 0d3e dcd0 c03e 0380 3f3e
000000f0: fa08 5b3e c291 88bd 7b0a 803e 7b96 5c3e
-0.108435534 0.19763927 0.3156845 0.29447442 0.2148725 0.19031522 0.1103501 0.0036480508
0.24596535 0.13500617 0.08425352 0.1374876 -0.4463005 0.38279492 -0.048468195 0.21825857
0.04900294 0.2884714 0.27054393 0.33220896 0.20067562 0.27516782 0.26680508 0.22642623
0.26173532 0.26717716 0.17725056 0.19154096 -0.11895782 0.2860264 0.17808801 0.27208787
0.33458662 0.21997365 -0.16529748 0.307384 0.2925864 0.15582626 0.053371616 0.2475699
0.23109767 0.355659 0.040324815 -0.0011692381 0.3202895 0.29748017 0.012879725 0.3444869
0.21190694 0.30283752 0.1626492 0.29934567 0.28416508 0.19426867 0.30685514 0.17190386
0.081144616 0.13851146 0.37659347 0.18701176 0.21390143 -0.06668426 0.25007996 0.21541779

fc2.weight f4 [1, 64]
00000000: 3c04 ed3c adc2 b3bd fc66 06be 4626 e5bd
00000010: 5c03 2f3e 5362 9ebd 67de bc3c 0fb2 e23c
00000020: fdd0 843e 75e4 bb3d 5fd2 b03d a379 47bb
00000030: a45f b93e ec61 3e3e 91f7 283c 11bf 993d
00000040: 3502 04bd 8d1d f43c 1e9e ed3d 7454 2b3e
00000050: b5e3 7b3d 2a13 14be df94 003e 7cdf 00be
00000060: 8882 12be 8845 a83d 1c38 e6bd feac 7cbd
00000070: a175 f4bc 291d d3bd d7e1 4c3d 7f2c adbe
00000080: d3be bc3d a54c 7bbd f2c8 873d 2af3 1bbe
00000090: f0be c23d f931 0cbd 9f20 5fbd 225c 983d
000000a0: 08fd be3d 0df1 f43d b22b 6d3d c652 9c3d
000000b0: c0b3 6a3d c7f2 e0bd 045d acbb 6836 083e
000000c0: 3bef e8bd b737 e7bd 2c4b b8bd de58 ef3d
000000d0: 7d83 053e be69 3ebd 011d abbd b4df 0e3d
000000e0: 38fc 813d fe1e a53d e75e af3d 3e0a 713d
000000f0: 9983 01be 3624 70bb 8f37 653d a92e 09be
0.028932683 -0.08777366 -0.13125223 -0.11188941 0.17091125 -0.077335976 0.023055268 0.027672796
0.25940695 0.09174434 0.08633875 -0.0030437491 0.3620578 0.18592042 0.010312931 0.07507146
-0.032228667 0.029799247 0.11602424 0.16731435 0.061496455 -0.14460436 0.1255679 -0.12585253
-0.14307606 0.08216387 -0.11241171 -0.061688416 -0.029841246 -0.10308296 0.050020065 -0.3382301
0.09216084 -0.06135239 0.06630124 -0.15229478 0.09509075 -0.034227345 -0.05447447 0.07439448
0.09325606 0.11960039 0.057903 0.07632975 0.05730033 -0.10983806 -0.0052601118 0.13302004
-0.113737546 -0.11289924 -0.08998713 0.11686872 0.1303844 -0.046487562 -0.083551414 0.03488131
0.06346935 0.08062552 0.08563023 0.05884766 -0.12647857 -0.0036642677 0.055961188 -0.13396706
