2025 AI Hackathon/t2_submit/t2_submit/model/traffic_multitask_lstm.pth (torch, 92959 bytes, 8 tensors)

lstm.weight_ih_l0 f4 [256, 19]
0.036898147 0.015742226 0.15749797 -0.105371445 0.029364308 0.005943171 -0.012897 -0.07900969
-0.12096712 0.10376361 0.054416 -0.04501131 0.052020967 0.040340826 0.08823532 0.0102953315
0.031292133 -0.09788445 -0.027946651 0.12526636 -0.024575628 -0.049298745 -0.0069319755 0.08560278
-0.005386659 0.050356507 -0.018987319 -0.11333549 -0.12370117 0.021578088 0.10479842 -0.09996131
0.07426222 0.11638045 -0.122339904 0.0072067617 0.099967346 0.02559553 -0.031107793 0.008096829
-0.07628881 0.01609458 0.06788529 0.09506879 -0.06635262 -0.056140725 0.063543245 -0.03422025
0.07529023 0.0012982488 -0.018941864 -0.10934962 0.03950648 -0.12077594 -0.11665522 -0.11415252
-0.07534514 -0.06070907 -0.068568654 0.048807267 0.08176671 0.12792201 0.060291186 -0.02807045
0.045073792 -0.04783769 -0.12095171 0.07087582 0.07663916 0.031287566 -0.06550963 -0.0736071
-0.094604 0.025338218 0.07581718 0.1069486 0.056034174 0.0024460247 0.10443442 0.10263397
0.031522095 0.008283873 -0.023401916 0.026857471 0.03232521 0.116833 0.113049924 0.035500154
-0.119060785 -0.020820692 -0.021210581 0.004824847 0.070611335 0.033945307 -0.10106394 0.061096955
0.044634268 -0.05565386 -0.009415597 -0.0487701 -0.013758207 0.03922057 -0.0521061 0.030125782
-0.07722357 -0.123312846 0.029136747 0.06718314 0.105708614 0.11340493 0.049997658 -0.00038492944
0.10808596 0.07201715 0.016191386 0.08557965 -0.018704146 -0.006752193 -0.09748616 -0.015127337
0.0059889257 -0.03420439 -0.06512934 -0.07822172 0.052936196 0.06907064 -0.10488124 -0.11177112
0.08849834 0.03745623 -0.107863665 0.0575957 0.033865318 -0.022992529 0.10664181 -0.035387263
0.11922747 -0.027554186 0.04265223 0.043418825 0.013195298 -0.07770467 -0.041550487 -0.058751374
-0.081853166 -0.10570072 0.053409994 0.0062609464 0.014401779 0.08641098 0.0504158 -0.063883185
0.09122936 -0.061867222 0.046714477 -0.029049575 0.109597765 -0.08500221 -0.012367025 0.11663976
-0.11282255 -0.031740025 0.08907892 -0.057110548 -0.10306546 0.113373324 -0.12252267 0.076882735
0.09001432 -0.047241658 -0.12044597 -0.15553357 -0.13606863 0.028200733 0.037012815 0.038847268
-0.09230572 -0.027548462 -0.023948627 -0.022492573 0.011562005 0.021295533 0.083924085 0.03061302
0.09834799 -0.009165645 -0.03600408 0.11460833 0.00042966008 0.031038716 0.08442339 0.050931893
0.12030954 -0.019949943 0.10497937 -0.053885084 0.10057671 -0.03065186 0.017874613 -0.08666594
-0.06791519 0.08492522 0.020250827 -0.029337972 0.12126359 0.115090996 -0.12966892 -0.040697828
0.062913075 -0.096168 -0.03417454 -0.06788925 0.07767865 0.023318961 -0.021576632 0.053308576
-0.040505283 0.048565075 0.08026913 0.03845939 -0.082190394 0.08164871 0.039956957 0.015995517
0.012793228 -0.09757316 -0.067537576 0.03935662 -0.08342213 0.020755712 -0.10958107 -0.08740823
-0.15280052 -0.06964452 -0.036413774 0.022406576 -0.0043555945 -0.07503675 0.055081263 -0.08259663
-0.019778922 0.0813683 0.048550323 -0.019636959 0.03845315 0.049197942 -0.084122464 0.06681416
0.12168388 0.10383246 -0.042573035 -0.07242524 0.09247348 -0.08899908 0.03445378 -0.037543923
00000000: 8322 173d d7f5 803c 2647 213e fccc d7bd
00000010: 6b8d f03c efbe c23b f04d 53bc d5cf a1bd
00000020: 9cbd f7bd 0482 d43d 50e3 5e3d c85d 38bd
00000030: f013 553d 6c3c 253d b8b4 b43d c0ad 283c
00000040: 2e2c 003d a477 c8bd 60f0 e4bc d345 003e
00000050: d452 c9bc 7bed 49bd a025 e3bb 8350 af3d
00000060: 9282 b0bb a042 4e3d 4b8b 9bbc 701c e8bd
00000070: 0a57 fdbd 88c4 b03c 8ea0 d63d 84b8 ccbd
00000080: ca16 983d e058 ee3d 588d fabd b326 ec3b
00000090: aebb cc3d b8ad d13c c5d5 febc 90a8 043c
000000a0: 4f3d 9cbd c8d8 833c 7107 8b3d 6db3 c23d
000000b0: e2e3 87bd d1f3 65bd f622 823d 882a 0cbd
000000c0: c431 9a3d 002a aa3a f82b 9bbc b2f2 dfbd
000000d0: 8cd1 213d 6059 f7bd efe8 eebd ccc8 e9bd
000000e0: 8e4e 9abd 13aa 78bd b96d 8cbd 21ea 473d
000000f0: 4e75 a73d fdfd 023e e4f3 763d 00f4 e5bc
00000100: 4c9f 383d 74f1 43bd 88b5 f7bd 5827 913d
00000110: fef4 9c3d 6427 003d ea29 86bd 52bf 96bd
00000120: bebf c1bd 1892 cf3c 0a46 9b3d de07 db3d
00000130: 1784 653d 7c4d 203b b7e1 d53d c231 d23d
00000140: 501d 013d 15b9 073c 60b5 bfbc 3304 dc3c
00000150: 7067 043d 2446 ef3d b886 e73d 9c68 113d
00000160: 24d6 f3bd 2890 aabc d0c1 adbc c019 9e3b
00000170: ad9c 903d 3c0a 0b3d 9cfa cebd cd40 7a3d
00000180: 6cd2 363d 4df5 63bd e043 1abc 28c3 47bd
00000190: 1a6a 61bc c0a5 203d 356d 55bd 58ca f63c
000001a0: 6427 9ebd 728b fcbd 30b0 ee3c 5097 893d
000001b0: c27d d83d d840 e83d 58ca 4c3d 5bd0 c9b9
000001c0: 2c5c dd3d ba7d 933d cca3 843c 6244 af3d
000001d0: 7039 99bc 8041 ddbb d3a6 c7bd a6d8 77bc
000001e0: c03e c43b e719 0cbd 8862 85bd b632 a0bd
000001f0: a0d3 583d e874 8d3d facb d6bd 42e8 e4bd
00000200: 9e3e b53d b46b 193d a0e7 dcbd 78e9 6b3d
00000210: 5cb6 0a3d d45a bcbc 0567 da3d 3cf2 10bd
00000220: 882d f43d 51b9 e1bc 1bb4 2e3d f0d7 313d
00000230: 1731 583c a023 9fbd d830 2abd 48a5 70bd
00000240: a2a2 a7bd 9e79 d8bd 70c4 5a3d a028 cd3b
00000250: 70f5 6b3c 3df8 b03d cc80 4e3d 30d5 82bd
00000260: 75d6 ba3d 7c68 7dbd ae57 3f3d 60f9 edbc
00000270: cb74 e03d a415 aebd 109f 4abc d4e0 ee3d
00000280: 820f e7bd d401 02bd 026f b63d c0ec 69bd
00000290: fc13 d3bd 4630 e83d 2aed fabd b274 9d3d
000002a0: 6e59 b83d 7880 41bd 60ac f6bd 3144 1fbe
000002b0: 9355 0bbe 3905 e73c c09a 173d 501e 1f3d
000002c0: c80a bdbd 50ad e1bc e92f c4bc 5842 b8bc
000002d0: 906e 3d3c f873 ae3c 64e0 ab3d 28c8 fa3c
000002e0: ac6a c93d 802b 16bc 0479 13bd c6b7 ea3d
000002f0: 0044 e139 e844 fe3c 2ce6 ac3d f69d 503d
00000300: d964 f63d 106e a3bc 6dff d63d 9bb6 5cbd
00000310: 2afb cd3d 9c19 fbbc c86d 923c ea7d b1bd
00000320: 1e17 8bbd 46ed ad3d 10e5 a53c 3056 f0bc
00000330: 0c59 f83d d4b4 eb3d eec7 04be c4b2 26bd
00000340: 92d8 803d baf3 c4bd 9afa 0bbd 8509 8bbd
00000350: fc15 9f3d 6807 bf3c 7ac1 b0bc 185a 5a3d
00000360: dee8 25bd 2cec 463d 2464 a43d 9887 1d3d
00000370: 7053 a8bd 7037 a73d e8a9 233d 0809 833c
00000380: b09a 513c 70d4 c7bd 2451 8abd 6834 213d
00000390: 39d9 aabd e207 aa3c 0a6c e0bd 1603 b3bd
000003a0: bd77 1cbe c9a1 8ebd 9c26 15bd ff8d b73c
000003b0: 60b9 8ebb deac 99bd e49c 613d 6c28 a9bd
000003c0: 6807 a2bc 6ca4 a63d b4dc 463d b0dd a0bc
000003d0: 0d81 1d3d c883 493d 6648 acbd ddd5 883d
000003e0: 6635 f93d 1da6 d43d 1061 2ebd af53 94bd
000003f0: bc62 bd3d 2645 b6bd 681f 0d3d a8c7 19bd

lstm.weight_hh_l0 f4 [256, 64]
-0.026934303 0.046551198 0.08048509 -0.12642011 -0.0051740087 -0.13504471 0.025148053 0.18461047
-0.17529877 -0.09366486 0.1543114 0.17909497 0.1025488 0.082867555 0.13562179 0.057232663
0.010573463 0.0091724135 0.09478486 -0.1338189 -0.050170194 0.084191844 -0.1902736 0.15952338
-0.041322857 0.05629228 0.22186743 -0.018407108 0.0821476 -0.08316215 -0.1701011 0.0044302796
0.16354413 -0.016160771 -0.19327074 0.20304221 -0.08720415 -0.04569264 -0.0168413 -0.0035358553
0.07926991 0.014843252 -0.032767843 0.19197422 -0.047907643 -0.002720627 -0.054293144 -0.13016728
-0.11535249 0.050231252 0.06746482 0.15693778 -0.060710333 -0.0037496656 0.07147207 0.06976924
0.06797275 0.17750897 -0.11340386 -0.057716727 -0.02514457 -0.027783852 -0.06923983 -0.11884482
-0.12227099 0.08548736 0.20892018 -0.10682009 0.11300275 -0.23132442 -0.06669675 0.15456012
-0.16079989 -0.042928133 0.106841415 0.081806466 -0.07944646 0.14896329 0.108656414 0.023437722
0.16934691 0.08750105 0.21961448 -0.13497414 -0.18120465 -0.08239837 -0.17166539 0.10246314
-0.00775158 -0.06485854 0.09989941 -0.0026032263 -0.016815146 -0.18067156 0.066432 0.04446315
0.10221167 -0.089202814 -0.100349896 0.12643926 0.0971445 -0.041053712 -0.17000344 -0.13756606
0.057535548 0.22256927 0.0132993255 0.0865849 -0.042524014 0.0796779 0.008118275 -0.03278197
-0.05463238 -0.004556304 -0.08604226 0.052965965 -0.038817767 0.10637739 -0.091376424 0.13779101
0.041941717 0.18014346 -0.04604614 -0.16167445 -0.17981772 0.05074594 0.10756033 -0.12863001
-0.07189847 -0.09611201 0.1600362 -0.035226367 0.07056503 0.1154742 0.047462482 0.2911989
0.07715866 -0.12878773 -0.077168055 0.11842697 -0.03792239 -0.043504115 0.1996196 0.10827571
0.02174002 0.24212179 -0.0769041 -0.12776664 -0.13540994 0.021074897 0.11514867 0.04695051
0.04424049 -0.028309176 0.14073125 0.029740265 0.06884692 -0.16777366 0.08949029 0.05156188
-0.042683803 -0.1529201 0.03434496 0.16608556 0.06752731 0.08853492 0.035619088 -0.0014774622
0.13228554 0.021975474 -0.12916179 0.12798038 0.021807073 -0.09041876 -0.030644892 -0.021550722
-0.08396685 0.118045114 -0.052107688 -0.07198433 -0.18132907 -0.11342485 0.03438277 0.19309114
-0.06818394 0.057528775 -0.096671805 -0.08903535 -0.051056646 -0.053888027 -0.06012955 0.03838438
-0.18328366 0.019443594 0.00038559636 -0.082566485 0.13775213 -0.11891508 0.06739335 0.21362199
-0.1333433 -0.047492113 0.072242856 0.074367784 0.07061376 0.0010997403 0.22490777 0.16120292
-0.0057429695 -0.0006326527 0.17145683 -0.16847318 -0.034906074 0.16458103 -0.08905423 0.1351827
0.01589252 -0.14396559 0.1335593 -0.13718033 -0.08958736 -0.1063408 -0.18276887 -0.0016326192
0.03383352 -0.13496841 -0.13721828 0.07178944 0.003931108 0.08212159 -0.07237271 -0.12966885
0.10155586 0.08683583 -0.060751416 0.059573643 -0.047026623 0.06283788 -0.13091119 0.07468791
-0.024869017 -0.010311898 0.02220523 -0.017391019 -0.07596205 0.08346014 -0.08171608 0.06384618
0.10103598 -0.009158104 -0.008376462 0.01305136 -0.13944271 0.025119685 -0.09357013 -0.06522432
00000000: 54a5 dcbc 78ac 3e3d 5ed5 a43d 4674 01be
00000010: bb8a a9bb 2949 0abe 4a03 ce3c 870a 3d3e
00000020: 8581 33be 5dd3 bfbd cf03 1e3e ac64 373e
00000030: 1b05 d23d 77b6 a93d 70e0 0a3e cc6c 6a3d
00000040: 513c 2d3c e447 163c 911e c23d d207 09be
00000050: 437f 4dbd c66c ac3d 15d7 42be 195a 233e
00000060: 2842 29bd bc92 663d 3731 633e 81ca 96bc
00000070: 003d a83d eb50 aabd fc2e 2ebe e12b 913b
00000080: 1d78 273e 9863 84bc c4e8 45be 4cea 4f3e
00000090: 1798 b2bd 3528 3bbd c4f6 89bc cfb9 67bb
000000a0: 4358 a23d 1c31 733c 9337 06bd e494 443e
000000b0: ce3a 44bd 8c4c 32bb 7d62 5ebd 924a 05be
000000c0: ed3d ecbd 49bf 4d3d ff2a 8a3d 4cb4 203e
000000d0: 66ab 78bd f3bc 75bb f35f 923d 2de3 8e3d
000000e0: 4c35 8b3d e9c4 353e 4840 e8bd 6068 6cbd
000000f0: fcfb cdbc f69a e3bc 9dcd 8dbd ea64 f3bd
00000100: 3669 fabd ff13 af3d 2cef 553e 7ec4 dabd
00000110: fc6d e73d 4fe0 6cbe 4e98 88bd 0245 1e3e
00000120: baa8 24be 69d5 2fbd accf da3d 268a a73d
00000130: d3b4 a2bd d589 183e 4187 de3d 7700 c03c
00000140: 4769 2d3e c033 b33d 9ee2 603e a936 0abe
00000150: b68d 39be 7ac0 a8bd 0dc9 2fbe 32d8 d13d
00000160: f700 febb 8ed4 84bd 1098 cc3d e49a 2abb
00000170: ebbf 89bc f701 39be 800d 883d fe1e 363d
00000180: 5a54 d13d f7af b6bd 3f84 cdbd 4b79 013e
00000190: b2f3 c63d f027 28bd 6215 2ebe 1ede 0cbe
000001a0: 65aa 6b3d 33e9 633e 6ae5 593c 6d53 b13d
000001b0: a92d 2ebd 2b2e a33d 8302 053c 6346 06bd
000001c0: 34c6 5fbd 0c4d 95bb ed36 b0bd d7f2 583d
000001d0: 61ff 1ebd 64dc d93d 9023 bbbd 1619 0d3e
000001e0: 14cb 2b3d 8777 383e e19a 3cbd fd8d 25be
000001f0: 2322 38be fada 4f3d 9748 dc3d 96b7 03be
00000200: 813f 93bd 60d6 c4bd 88e0 233e 8649 10bd
00000210: 6684 903d bd7d ec3d 0568 423d 0618 953e
00000220: 5c05 9e3d eee0 03be 490a 9ebd d789 f23d
00000230: 8254 1bbd 5f31 32bd 1569 4c3e a8bf dd3d
00000240: 2018 b23c c6ee 773e e67f 9dbd 42d5 02be
00000250: e7a8 0abe 43a5 ac3c 11d3 eb3d 2e4f 403d
00000260: 8435 353d a5e8 e7bc da1b 103e dba1 f33c
00000270: 9dff 8c3d dccc 2bbe af46 b73d 8d32 533d
00000280: 36d5 2ebd 1697 1cbe 4dad 0c3d 5512 2a3e
00000290: c24b 8a3d cc51 b53d 52e5 113d 68a7 c1ba
000002a0: dc75 073e e905 b43c fd42 04be 4a0d 033e
000002b0: bfa4 b23c 792d b9bd ff0a fbbc 248b b0bc
000002c0: d0f6 abbd a3c1 f13d df6e 55bd 856c 93bd
000002d0: 54ae 39be 4a4b e8bd f3d4 0c3d afb9 453e
000002e0: 06a4 8bbd 4ba3 6b3d defb c5bd 2a58 b6bd
000002f0: c620 51bd b1b9 5cbd 674a 76bd f138 1d3d
00000300: b6ae 3bbe 2c48 9f3c de29 ca39 9e18 a9bd
00000310: e50e 0d3e c089 f3bd 8605 8a3d b9bf 5a3e
00000320: 258b 08be 1787 42bd 10f4 933d 234e 983d
00000330: f29d 903d 2925 903a 394e 663e 6112 253e
00000340: 852f bcbb 9bd8 25ba 6192 2f3e 3c84 2cbe
00000350: acf9 0ebd ee87 283e 1062 b6bd 556d 0a3e
00000360: 0831 823c b76b 13be c5c3 083e 0079 0cbe
00000370: 9479 b7bd 35c9 d9bd c327 3bbe 9cfd d5ba
00000380: 0495 0a3d 2935 0abe f382 0cbe 5806 933d
00000390: 86d0 803b 5d2f a83d 2538 94bd e9c7 04be
000003a0: 85fc cf3d fcd6 b13d 7ad6 78bd 7e03 743d
000003b0: fd9e 40bd 25b1 803d 950d 06be faf5 983d
000003c0: 1cba cbbc 3cf3 28bc bee7 b53c 9c77 8ebc
000003d0: fe91 9bbd 26ed aa3d c35a a7bd c9c1 823d
000003e0: f4eb ce3d df0b 16bc 6e3d 09bc 5fd5 553c
000003f0: 12ca 0ebe ccc7 cd3c b2a1 bfbd 5494 85bd

lstm.bias_ih_l0 f4 [256]
0.060868844 0.05963729 -0.047093134 0.057583973 0.08082629 0.13695471 0.1749628 0.105678774
0.10051021 0.0015978554 -0.044633694 0.0719741 -0.02006723 0.09937334 0.1807796 0.17888926
0.102865845 0.1192231 0.10585016 0.12714529 0.10339993 0.035910826 -0.08373543 0.1631496
0.21119142 0.17777444 0.033731762 0.07678309 0.10647337 0.06448933 0.090791635 0.116000175
0.13411255 0.03282047 0.10730128 0.11572556 0.22081666 0.050816093 0.15494151 0.03166261
0.0748321 0.14863099 0.047302596 0.0719943 0.06882061 0.16942856 0.102518514 0.13096887
0.22783889 0.12505329 0.051443253 0.07215159 0.027897822 0.18403617 0.24168234 0.048424494
0.15885046 -0.06527638 0.08179991 -0.09365934 -0.029528834 0.050360497 0.017878592 0.13790576
0.0773696 0.035712454 -0.15400895 -0.17612661 -0.02661484 -0.036507625 0.07932921 0.07127056
0.04225003 0.014881983 -0.106104285 -0.03103874 0.06998615 0.004951091 0.16808212 -0.090909794
-0.026928296 -0.12253981 0.05287363 0.04442856 -0.019812718 -0.014701527 0.006372935 0.08236439
0.04616564 -0.0076010465 -0.009694823 0.04559221 -0.015231577 -0.0914639 -0.071446426 0.10339863
0.0060743266 0.033397548 -0.03323706 -0.07388425 -0.008500516 0.16455361 0.0036318016 -0.08787721
-0.113384806 -0.008274164 0.058839835 0.0352592 -0.0074379626 -0.06706882 -0.018020146 -0.008508372
0.17982994 -0.032608874 -0.13189521 0.15803236 0.04019499 -0.0032140044 0.10459504 -0.18260376
0.11862016 0.08935094 0.044961285 -0.026476517 -0.116328366 0.10595914 0.087482296 -0.0439181
-0.0073174364 -0.20592715 -0.15059447 0.17846349 -0.060004294 0.041165493 -0.030629005 0.005056164
-0.0885046 -0.094879344 -0.059026055 0.019128304 0.12246708 -0.0070031625 0.1461271 0.115750544
-0.19047144 -0.164401 0.13099831 -0.094241105 0.18885541 0.19601163 0.19450763 -0.20909454
0.17156892 0.1163186 -0.048283547 0.045953006 0.20672062 0.015021554 -0.18584661 -0.17969866
-0.14188987 0.14743374 0.03608409 -0.12281885 -0.17155154 -0.098465376 -0.08420035 0.064917974
-0.07446456 -0.16768263 -0.17214674 0.08353922 0.17871045 0.07472403 0.0045875884 -0.03513402
-0.063075356 0.11444609 -0.06676086 0.0892892 -0.17753316 0.20834847 -0.04072802 -0.1394445
-0.044284627 0.014701794 -0.20183675 0.092159525 0.12023726 -0.06541483 -0.06598343 0.048520464
0.12845233 0.09625273 0.05645225 0.072539054 -0.03755671 -0.084431216 0.20390715 0.15234849
-0.02504953 0.08343407 0.06427242 0.091407806 0.047192115 0.14515716 0.016672418 0.19010997
0.11996366 0.15972757 0.15032654 0.03608074 0.006521798 -0.022113197 -0.12382658 0.017658215
0.10320516 0.14109488 0.1214642 0.020715078 0.09596256 -0.038610674 0.10644196 0.1745456
-0.09334077 -0.092062116 -0.06082573 0.14357671 0.062561914 0.18461433 -0.012909519 -0.030007802
-0.046830777 -0.13425365 0.11078502 0.06040367 0.075185455 0.058684256 0.09441023 0.19568048
0.16996942 0.088677056 0.14847218 0.016096478 0.07318856 0.17901637 0.07335586 0.033533063
0.08421428 0.034710627 0.06793995 0.048044525 -0.0049466128 0.13113692 0.15028961 0.14174812
00000000: 9c51 793d 3b46 743d bbe4 40bd 2cdd 6b3d
00000010: 4188 a53d db3d 0c3e 7329 333e 1d6e d83d
00000020: 4cd8 cd3d 216f d13a d2d1 36bd 2867 933d
00000030: 0864 a4bc 4084 cb3d 4a1e 393e bf2e 373e
00000040: 54ab d23d 3e2b f43d f8c7 d83d 6032 023e
00000050: 58c3 d33d 3b17 133d 7b7d abbd b010 273e
00000060: 9042 583e 810a 363e 512a 0a3d 7440 9d3d
00000070: b60e da3d fb12 843d f7f0 b93d 8091 ed3d
00000080: cd54 093e c26e 063d c6c0 db3d 8601 ed3d
00000090: c31d 623e 8924 503d fda8 1e3e a7b0 013d
000000a0: 9241 993d b932 183e 5ec0 413d bf71 933d
000000b0: d2f1 8c3d ae7e 2d3e 3af5 d13d b41c 063e
000000c0: 994e 693e f80d 003e 29b6 523d 36c4 933d
000000d0: f989 e43c fa73 3c3e 937b 773e c358 463d
000000e0: b2a9 223e 9faf 85bd b686 a73d 78d0 bfbd
000000f0: 74e6 f1bc cf46 4e3d 2076 923c 2b37 0d3e
00000100: f473 9e3d 3947 123d 86b4 1dbe 895a 34be
00000110: 5d07 dabc 0589 15bd 5a77 a23d 4df6 913d
00000120: 5e0e 2d3d 90d3 733c 344d d9bd f544 febc
00000130: e654 8f3d c33c a23b b81d 2c3e ea2e babd
00000140: bb98 dcbc 27f6 fabd 0592 583d b9fa 353d
00000150: 484e a2bc acde 70bc 0ed4 d03b a9ae a83d
00000160: 2f18 3d3d 3312 f9bb 09d7 1ebc e6be 3a3d
00000170: dd8d 79bc 6d51 bbbd 8152 92bd a9c2 d33d
00000180: 250b c73b decb 083d 9523 08bd a050 97bd
00000190: c045 0bbc be80 283e 8503 6e3b f7f8 b3bd
000001a0: 4b36 e8bd 5c90 07bc 0a02 713d f36b 103d
000001b0: 27ba f3bb 615b 89bd fc9e 93bc b366 0bbc
000001c0: 5725 383e e290 05bd 8a0f 07be 3cd3 213e
000001d0: 80a3 243d 0ca2 52bb ed35 d63d 7bfc 3abe
000001e0: 20ef f23d a0fd b63d 5329 383d 48e5 d8bc
000001f0: 913d eebd 1b01 d93d eb29 b33d 77e3 33bd
00000200: 1bc7 efbb 91de 52be 7035 1abe 22bf 363e
00000210: 10c7 75bd 269d 283d aee9 fabc 2eae a53b
00000220: e641 b5bd 1a50 c2bd 4ec5 71bd f6b2 9c3c
00000230: 05d0 fa3d c97a e5bb 58a2 153e 9f0e ed3d
00000240: f20a 43be bc58 28be 6c24 063e 7b01 c1bd
00000250: 5063 413e 46b7 483e 022d 473e e11c 56be
00000260: c3af 2f3e 7238 ee3d f8c4 45bd 3839 3c3d
00000270: 92ae 533e f71c 763c 934e 3ebe ed02 38be
00000280: 944b 11be dff8 163e e9cc 133d 7388 fbbd
00000290: 35ab 2fbe 37a8 c9bd 3c71 acbd b7f3 843d
000002a0: e080 98bd ffb4 2bbe 3c47 30be 9c16 ab3d
000002b0: dfff 363e ea08 993d 7b53 963b b1e8 0fbd
000002c0: a72d 81bd b662 ea3d ebb9 88bd 42dd b63d
000002d0: 41cb 35be 4d59 553e 6dd2 26bd 8aca 0ebe
000002e0: cc63 35bd cbdf 703c 4bae 4ebe 22be bc3d
000002f0: f43e f63d 36f8 85bd 5222 87bd 65bd 463d
00000300: 0289 033e 2720 c53d 793a 673d 5b8f 943d
00000310: 11d5 19bd 46ea acbd 09cd 503e 3e01 1c3e
00000320: ac34 cdbc 7bdf aa3d 42a1 833d 0434 bb3d
00000330: 854c 413d 14a4 143e 9894 883c 30ac 423e
00000340: 82af f53d a08f 233e 33ef 193e 66c9 133d
00000350: cfb4 d53b bc26 b5bc ca98 fdbd f6a7 903c
00000360: 3a5d d33d 2d7b 103e 39c2 f83d abb2 a93c
00000370: 0588 c43d 3a26 1ebd 3efe d93d 15bc 323e
00000380: 7229 bfbd 108b bcbd 6724 79bd c605 133e
00000390: 7620 803d 8a0b 3d3e 7282 53bc ecd2 f5bc
000003a0: a1d1 3fbd ca79 09be 42e3 e23d d769 773d
000003b0: d5fa 993d e75e 703d 275a c13d 7760 483e
000003c0: 770c 2e3e 519c b53d 1709 183e c3dc 833c
000003d0: e2e3 953d 1150 373e 993b 963d f759 093d
000003e0: 8978 ac3d bb2c 0e3d 1a24 8b3d 56ca 443d
000003f0: 3217 a2bb c248 063e 85e5 193e 6b26 113e

lstm.bias_hh_l0 f4 [256]
0.23152399 0.20175469 0.017149068 0.20757036 0.0201248 0.1732188 -0.006895349 0.07052372
0.09543504 0.19434078 0.13208461 0.12310075 0.093009055 -0.02695114 0.18547562 0.1526821
0.1724704 0.0037814125 0.058544878 -0.032464102 0.08933454 0.2030985 -0.039995737 -0.018743305
0.13785374 0.23155399 -0.05806207 -0.01426575 0.16066597 -0.055222522 0.009016748 0.1463877
0.19560516 0.10002519 0.13317524 0.2261514 0.05013494 0.109186575 0.068023436 0.12726726
0.0090507055 0.19442475 0.18607068 0.061648224 0.017685715 0.007972882 0.004297397 0.14075828
0.13721561 0.05291278 0.13067962 0.17430642 0.17786175 0.19589864 0.10988957 0.012563326
0.1026368 -0.119748875 0.11692492 -0.10587699 0.12675084 0.22231112 0.038663372 0.18634331
0.0959336 0.024069145 0.059784938 -0.0013956949 0.063560195 -0.17598619 0.10212569 0.094027214
-0.035965003 0.04116008 -0.018615818 -0.020212932 -0.0700552 0.08594259 0.08747153 -0.14081146
0.044158664 -0.01405741 0.11683831 0.0290726 -0.14569363 -0.002162985 0.054800265 0.08332936
-0.0025621103 0.05853826 0.08317772 0.07343849 -0.051547695 -0.025812268 -0.12082737 0.07346413
-0.05662524 -0.15045413 -0.027768102 0.03422398 0.098798126 0.1544004 0.15908135 0.033884514
-0.017113524 -0.21335171 0.14582354 -0.024212023 -0.15025403 -0.03751243 -0.047844026 0.060243126
-0.051326215 0.17684533 -0.021609645 0.103127904 0.10132479 -0.04251567 0.14606807 -0.19502766
-0.0028301936 -0.07710189 0.08262225 0.09186684 -0.07262861 -0.016409468 -0.15618718 0.040582895
-0.11805104 -0.0288203 -0.11384523 0.13240455 -0.010292021 0.15240596 -0.08507924 0.18462256
-0.02265621 -0.21389289 0.07293657 0.12984897 0.04506644 -0.036765464 -0.015408185 0.035758637
-0.14787026 -0.14027339 -0.014146116 -0.14403181 0.11466282 0.1447255 0.13780577 -0.019699728
0.1891203 0.1071147 -0.020769263 -0.10693249 0.0060867583 -0.101887636 -0.065417826 -0.033424564
-0.059945103 0.063385196 0.030723775 -0.11061439 -0.076216556 -0.102994986 0.036091328 0.06254518
-0.037307356 -0.08123651 0.019526096 0.055326637 0.057082377 0.08864503 -0.0657418 -0.069273666
-0.017708091 0.20552966 -0.09326776 0.026566014 0.019180825 0.07740441 -0.14239894 -0.097766
-0.18036856 0.019539969 -0.14658351 -0.059162874 0.007293789 -0.07953032 -0.12917054 0.08413743
0.17296305 0.20082466 0.042998925 0.06398082 0.15412143 0.008078681 0.1360141 0.14146765
0.0426913 0.032613277 0.13478827 0.01643712 -0.013599677 0.050453592 0.18514311 0.14795049
0.14525269 0.1970215 0.17412588 0.017098673 -0.11432208 0.044152796 -0.057956785 0.14524837
0.11227233 0.18749842 0.08704392 0.14851661 0.20583987 -0.14432985 0.04788688 0.21678728
-0.14615299 -0.04553532 -0.11184828 0.07704931 0.23780318 0.12821148 0.020430531 0.088046394
0.11280265 0.015566163 0.1484964 0.07397186 -0.013018938 0.10890426 0.19882512 0.12060096
0.19694598 0.22183025 0.15242504 0.059837703 0.030206556 0.2392539 0.18977354 0.22326355
0.117757685 -0.00967386 0.113332056 0.102865346 -0.13238496 0.15748394 0.1895527 0.18730672
00000000: a014 6d3e c898 4e3e 347c 8c3c 538d 543e
00000010: c4dc a43c 4560 313e 61f2 e1bb bd6e 903d
00000020: 7273 c33d 4501 473e 3041 073e 3f1c fc3d
00000030: 887b be3d a3c8 dcbc 52ed 3d3e b258 1c3e
00000040: 159c 303e 93d1 773b c1cc 6f3d 14f9 04bd
00000050: 07f5 b63d 0ef9 4f3e 92d2 23bd 8f8b 99bc
00000060: 8829 0d3e 7d1c 6d3e 7ed2 6dbd e4ba 69bc
00000070: 9f85 243e 0331 62bd fbba 133c a8e6 153e
00000080: b84c 483e 02da cc3d 175f 083e 3c94 673e
00000090: 4b5a 4d3d 369d df3d df4f 8b3d 5952 023e
000000a0: 6949 143c 4817 473e 5089 3e3e d982 7c3d
000000b0: a2e1 903c b1a0 023c 2ed1 8c3b f022 103e
000000c0: 4082 0c3e 12bb 583d e1d0 053e 627d 323e
000000d0: 6421 363e a799 483e c80d e13d 69d6 4d3c
000000e0: 3e33 d23d e63e f5bd 5576 ef3d 09d6 d8bd
000000f0: f9ca 013e 87a5 633e 7c5d 1e3d c8d0 3e3e
00000100: d678 c43d a82c c53c 0de1 743d c0ef b6ba
00000110: d92b 823d b935 34be 4627 d13d 5791 c03d
00000120: 0a50 13bd 7997 283d 3380 98bc 9795 a5bc
00000130: 1a79 8fbd ab02 b03d 4624 b33d e130 10be
00000140: b7df 343d 0d51 66bc ed48 ef3d a929 ee3c
00000150: b630 15be dec0 0dbb 3e76 603d 95a8 aa3d
00000160: 14e9 27bb d1c5 6f3d 1559 aa3d eb66 963d
00000170: ad23 53bd 4074 d3bc 5774 f7bd 5d74 963d
00000180: deef 67bd a610 1abe ee79 e3bc 722e 0c3d
00000190: ac56 ca3d 231b 1e3e 39e6 223e 7dca 0a3d
000001a0: a931 8cbc df78 5abe c452 153e 4b58 c6bc
000001b0: 31dc 19be a2a6 19bd 19f8 43bd 7fc1 763d
000001c0: 703b 52bd f116 353e b606 b1bc b934 d33d
000001d0: 5f83 cf3d e924 2ebd de92 153e 55b5 47be
000001e0: c57a 39bb 99e7 9dbd db35 a93d af24 bc3d
000001f0: 4fbe 94bd 266d 86bc 88ef 1fbe 403a 263d
00000200: bec4 f1bd 8d18 ecbc b027 e9bd 0f95 073e
00000210: dd9f 28bc 4f10 1c3e 063e aebd b20d 3d3e
00000220: 8499 b9bc bd06 5bbe c55f 953d 21f7 043e
00000230: 9697 383d 6297 16bd 9d72 7cbc a677 123d
00000240: 4d6b 17be d4a3 0fbe 1cc5 67bc 137d 13be
00000250: 57d4 ea3d ec32 143e f51c 0d3e 5361 a1bc
00000260: c0a8 413e f45e db3d 4d24 aabc 6cff dabd
00000270: 6e73 c73b 77aa d0bd c8f9 85bd 32e8 08bd
00000280: ff88 75bd 19d0 813d 6db0 fb3c cc89 e2bd
00000290: 6d17 9cbd 09ef d2bd 80d4 133d b017 803d
000002a0: 99cf 18bd 545f a6bd 31f5 9f3c 2f9e 623d
000002b0: 36cf 693d 878b b53d a3a3 86bd 5adf 8dbd
000002c0: 8f10 91bc 5e76 523e 2b03 bfbd f8a0 d93c
000002d0: 1b21 9d3c 3486 9e3d 07d1 11be 8a39 c8bd
000002e0: 89b2 38be 4912 a03c fd19 16be c554 72bd
000002f0: bd00 ef3b cbe0 a2bd 4845 04be 3f50 ac3d
00000300: 3a1d 313e fba4 4d3e a41f 303d 6008 833d
00000310: 02d2 1d3e 725c 043c 4847 0b3e e5dc 103e
00000320: 13dd 2e3d 8095 053d f005 0a3e 24a7 863c
00000330: 2ed1 5ebc 6da8 4e3d 2896 3d3e 5580 173e
00000340: 1fbd 143e 01c0 493e 0e4e 323e 8412 8c3c
00000350: b221 eabd 90d9 343d 1864 6dbd fdbb 143e
00000360: 09ef e53d 96ff 3f3e 1544 b23d bd14 183e
00000370: b0c7 523e 34cb 13be 0825 443d 7cfd 5d3e
00000380: 21a9 15be 3e83 3abd b610 e5bd 07cc 9d3d
00000390: ad82 733e df49 033e ee5d a73c ab51 b43d
000003a0: 1305 e73d 3809 7f3c 710f 183e 8f7e 973d
000003b0: 624d 55bc 3209 df3d d098 4b3e a3fd f63d
000003c0: 35ac 493e 7827 633e 4f15 1c3e 6118 753d
000003d0: bd73 f73c f9fe 743e ff53 423e 339f 643e
000003e0: f12a f13d 1c7f 1ebc a31a e83d 11ab d23d
000003f0: ec8f 07be 7843 213e 1a1a 423e 55cd 3f3e

head_duration.weight f4 [4, 64]
-0.15096197 0.05429386 -0.19607808 0.068777986 -0.007224967 0.092498526 -0.13474797 -0.22567807
0.213072 0.050390277 -0.075373046 -0.1699761 -0.05331855 -0.1508107 -0.19073094 0.094424814
-0.04737401 -0.1504733 -0.045589704 0.03061458 0.20287375 -0.09782451 0.19693719 0.028865088
-0.030636033 0.032827996 0.009642488 -0.008615 0.12249593 0.027589237 -0.023025483 0.011319031
-0.033624593 0.21746549 0.17291398 -0.20789108 -0.09786125 0.02760923 0.18045425 0.21063696
-0.1948312 -0.044886943 -0.039068017 -0.116441995 0.020017605 0.20118167 -0.12075273 -0.03290328
-0.092582256 0.10366232 -0.19104467 0.12927112 0.072386436 0.054094378 0.019521888 -0.20082854
-0.13334674 -0.21654035 -0.03636084 0.021194309 0.08226298 -0.07756904 0.031507894 0.004741049
0.02269495 -0.09669528 0.012463273 -0.11022648 -0.12037362 -0.09632541 0.07335035 0.086986996
-0.08288618 0.09158987 0.07617982 0.015403385 -0.005625132 0.056275524 0.12564965 0.103637755
-0.02953158 0.10152674 0.014259759 0.023065528 0.015677663 0.020724269 -0.15396458 -0.107355826
-0.017230405 -0.12573951 0.03800053 -0.038032833 -0.18170425 0.04174495 -0.084908776 0.008464062
0.037378408 -0.16835456 -0.18443924 0.015996099 -0.08285724 -0.1121561 -0.05382918 -0.105137505
0.08572937 0.048649874 -0.10379807 0.12102883 0.047159195 -0.15969907 0.04617956 -0.07430116
-0.079811856 -0.009372642 0.1939681 -0.035865396 -0.023399733 -0.053862456 -0.13166934 0.011835388
0.01650218 0.06033107 0.032083575 0.13658972 -0.01726534 0.11297618 0.06096871 0.009221301
0.019096049 -0.01779307 -0.04265139 -0.005386511 0.1901056 -0.08003396 0.05285098 -0.009534825
-0.05117233 0.0576118 -0.06840178 -0.11813675 -0.08239255 0.11967031 -0.015964394 -0.2152482
0.17939371 0.15039143 0.08730707 0.04891052 0.037247982 -0.029448379 -0.011183486 -0.07716795
-0.1580175 -0.058092907 0.018717699 -0.08175105 -0.0626192 0.072998226 0.14905705 0.029440302
-0.015765777 -0.15890835 -0.1628808 0.16682173 -0.034203738 -0.22395566 -0.005250381 -0.0999069
0.13615836 0.122512005 0.14283781 -0.062328923 0.04646684 -0.040300887 -0.02402871 -0.008221181
0.19670677 -0.01873246 0.108223386 -0.009306479 0.19763424 0.036435638 0.14969838 0.017391091
0.030738898 -0.017070701 0.07149763 0.054570686 0.053251483 0.026225401 0.114815645 -0.006082319
-0.022251982 -0.10496014 0.20063807 -0.08100623 0.111403495 -0.085002124 0.063479275 0.0324773
-0.10619815 -0.016143512 0.006615435 0.0046548713 0.1418461 -0.042338412 -0.09970708 0.13361825
0.073960975 -0.07180083 0.118996345 -0.0910114 -0.11593359 0.027922658 -0.11529383 0.107059404
0.12231733 -0.015781257 0.18781482 -0.19235584 -0.101032645 0.054724414 -0.12116981 -0.089274004
0.18863139 -0.089387916 -0.15878074 0.056535255 -0.09178102 0.041845944 0.06626199 0.019391414
0.033902057 0.029411893 -0.0457537 0.004537658 0.020328732 0.029519368 -0.15356186 0.024626398
-0.1274573 0.030394834 0.11279049 -0.032302205 0.073233634 -0.046682216 0.08293849 0.11474707
0.029950991 0.12985912 -0.0507776 -0.050827164 -0.16475485 0.038884185 -0.072358795 0.0820787
00000000: c695 1abe 3d63 5e3d b1c8 48be 79db 8c3d
00000010: 6abf ecbb de6f bd3d 5ffb 09be 2718 67be
00000020: 8c2f 5a3e 0966 4e3d 2f5d 9abd 370e 2ebe
00000030: 8d64 5abd 1f6e 1abe f94e 43be cc61 c13d
00000040: 400b 42bd ac15 1abe 45bc 3abd 6dcb fa3c
00000050: 23be 4f3e 3758 c8bd e7a9 493e 7a76 ec3c
00000060: 6bf8 fabc a676 063d 87fb 1d3c ee25 0dbc
00000070: 25df fa3d d302 e23c f09f bcbc 7573 393c
00000080: f1b9 09bd 46af 5e3e 5d10 313e 66e1 54be
00000090: 7b6b c8bd c02c e23c 00c9 383e 37b1 573e
000000a0: d581 47be 5fdb 37bd c905 20bd 2479 eebd
000000b0: f6fb a33c 9102 4e3e 354d f7bd 97c5 06bd
000000c0: c49b bdbd e94c d43d 37a1 43be a65f 043e
000000d0: 573f 943d 1192 5d3d 5eec 9f3c ffa5 4dbe
000000e0: 0c8c 08be c1bc 5dbe 1bef 14bd b09f ad3c
000000f0: 7e79 a83d 84dc 9ebd 6c0e 013d cd5a 9b3b
00000100: c3ea b93c 2d08 c6bd c132 4c3c 6cbe e1bd
00000110: 7286 f6bd 4246 c5bd b538 963d 3d26 b23d
00000120: 3bc0 a9bd 7893 bb3d 2a04 9c3d 7b5e 7c3c
00000130: 0753 b8bb 2a81 663d 4daa 003e 0840 d43d
00000140: 36ec f1bc 40ed cf3d c4a1 693c ebf3 bc3c
00000150: 716e 803c f1c5 a93c e4a8 1dbe 5fdd dbbd
00000160: c726 8dbc dcc1 00be 72a6 1b3d 51c8 1bbd
00000170: ae10 3abe c1fc 2a3d a7e4 adbd d9ac 0a3c
00000180: 1a1a 193d 2365 2cbe a4dd 3cbe 400a 833c
00000190: 0fb1 a9bd 19b2 e5bd fc7b 5cbd 5552 d7bd
000001a0: e192 af3d 1745 473d 1594 d4bd f7dd f73d
000001b0: 002a 413d 2788 23be c726 3d3d 352b 98bd
000001c0: 6674 a3bd b68f 19bc 939f 463e 98e7 12bd
000001d0: ccb0 bfbc e19e 5cbd 54d4 06be 37e9 413c
000001e0: 942f 873c b61d 773d 116a 033d 2dde 0b3e
000001f0: 0b70 8dbc 0e60 e73d 53ba 793d f114 173c
00000200: 516f 9c3c c6c2 91bc 39b3 2ebd 5481 b0bb
00000210: 0bab 423e d8e8 a3bd 457a 583d f437 1cbc
00000220: 149a 51bd 5afa 6b3d 3c16 8cbd aef1 f1bd
00000230: 6dbd a8bd b515 f53d c3c7 82bc 066a 5cbe
00000240: fcb2 373e 3600 1a3e 0dce b23d 6656 483d
00000250: 5791 183d ba3d f1bc f13a 37bc 3b0a 9ebd
00000260: 57cf 21be d4f2 6dbd dc55 993c 186d a7bd
00000270: 7f3e 80bd 1880 953d 69a2 183e ca2c f13c
00000280: 3b27 81bc dfb8 22be 39ca 26be 51d3 2a3e
00000290: 3819 0cbd a254 65be 630b acbb fd9b ccbd
000002a0: 196d 0b3e 93e7 fa3d 1344 123e 9d4c 7fbd
000002b0: 0354 3e3d 8b12 25bd dbd7 c4bc 22b2 06bc
000002c0: 806d 493e d174 99bc 39a4 dd3d 347a 18bc
000002d0: a160 4a3e 893d 153d 884a 193e c377 8e3c
000002e0: 24d0 fb3c dbd7 8bbc 596d 923d 8385 5f3d
000002f0: 3a1e 5a3d a7d6 d63c 7724 eb3d 314e c7bb
00000300: ca49 b6bc 58f5 d6bd 1174 4d3e 98e6 a5bd
00000310: 8427 e43d 9815 aebd 6c01 823d eb06 053d
00000320: 6a7e d9bd 663f 84bc 4ac6 d83b e487 983b
00000330: 1b40 113e 0b6b 2dbd 3a33 ccbd 39d3 083e
00000340: da78 973d 500c 93bd 5bb4 f33d 2f64 babd
00000350: 976e edbd 0fbe e43c 2c1f ecbd f641 db3d
00000360: 8281 fa3d b247 81bc 8752 403e eef8 44be
00000370: 34ea cebd b526 603d e127 f8bd 4ad5 b6bd
00000380: 9628 413e 0311 b7bd 6b97 22be 8391 673d
00000390: b0f7 bbbd a766 2b3d 5eb4 873d beda 9e3c
000003a0: e2dc 0a3d 36f1 f03c 3b68 3bbd a2b0 943b
000003b0: 7188 a63c 9ad2 f13c 523f 1dbe 4dbd c93c
000003c0: 2b84 02be 96fe f83c b3fe e63d 514f 04bd
000003d0: 84fb 953d da35 3fbd a8db a93d 8300 eb3d
000003e0: c85b f53c caf9 043e 2cfc 4fbd 2530 50bd
000003f0: 7fb5 28be 0645 1f3d d930 94bd e118 a83d

head_duration.bias f4 [4]
-0.16140267 0.09124305 -0.017116752 -0.0174388
00000000: be46 25be a3dd ba3d 6e38 8cbc d0db 8ebc

head_volume.weight f4 [4, 64]
-0.16766222 -0.23596832 -0.062149677 -0.04073536 -0.11841261 -0.013382228 -0.16323885 0.17276886
-0.07694002 -0.22261271 0.03502059 0.13165352 0.06842514 -0.014982207 0.11214194 -0.0029272395
-0.16191678 -0.2050277 0.1138186 -0.02439675 0.048993427 -0.011175614 0.16660058 -0.084543586
0.18828993 0.2431707 -0.0061650565 -0.056664817 0.15193881 -0.106699035 -0.123885795 -0.12124535
-0.008710211 -0.08254298 -0.15150972 -0.039562944 -0.12401612 -0.08095942 0.048323456 0.05935025
0.025418377 -0.0125150075 -0.096145615 0.005868543 -0.03434248 0.15302928 -0.093407884 -0.22156817
-0.1854366 0.12525862 -0.24506009 0.07463761 -0.22486982 0.08878654 -0.25443423 -0.25473845
-0.06787007 0.014761217 -0.1282311 -0.041028436 0.012580605 -0.23417744 -0.24889487 0.12503684
0.1516485 0.103772745 -0.06559832 -0.1178288 -0.048714567 0.015719466 -0.23900132 0.0012167118
-0.10902963 -0.021367785 0.036830544 -0.046179157 0.064313374 -0.061246224 0.14664005 -0.19186859
0.07782835 0.17439346 -0.047753923 -0.072837606 -0.07971109 -0.18574113 -0.07694217 0.17875694
-0.15537079 0.03870072 0.017734265 0.02545262 0.046336558 -0.008422657 0.040472995 -0.021425746
0.010511061 -0.09545684 -0.14482233 0.033027068 0.18173413 0.010962077 -0.07419885 -0.18794933
0.0017369507 0.06412993 0.21893956 -0.17112735 0.024996331 0.0893936 0.21454917 0.14995235
0.16578934 0.027917972 -0.0006153062 -0.14812018 0.10926073 -0.12966073 0.009872128 -0.07381868
0.1527685 0.08578131 0.037948854 0.09962531 0.10856664 0.0769462 -0.031616263 -0.0919655
0.2565701 0.11707553 0.10231189 -0.18377036 0.03410611 -0.04350653 0.043261893 0.07086292
0.043500748 0.1560837 0.020033712 0.016545644 0.014592442 0.0786398 0.07698946 -0.21576546
0.054755393 0.08549858 -0.081890985 -0.115958646 -0.09778779 0.056606106 -0.1130829 0.18275782
-0.031550087 -0.12215519 -0.14207427 -0.03592183 -0.18015176 0.20850812 -0.18965644 0.082780294
0.015220422 -0.019724954 -0.16156864 0.15860727 0.06706212 0.21470228 0.02629084 -0.17585081
-0.1121731 -0.015011342 0.09556386 0.10775242 -0.110729195 -0.1760041 0.25936317 0.117064625
0.12751234 -0.13008404 0.09086337 -0.21573642 -0.0049067726 -0.24552956 0.13261776 0.15391198
0.20983528 -0.025612868 0.04425991 0.09915631 0.042236105 0.07137846 0.014661658 -0.0057803234
0.2443447 0.1061527 -0.12398426 -0.04248657 0.058585342 -0.024726711 0.12647142 0.004741692
-0.03130754 0.049708027 0.044048984 -0.028811973 -0.0545281 -0.10495402 -0.062191103 -0.1579648
0.25383398 -0.17707545 -0.19817904 0.068101846 0.11966634 -0.17603931 0.15958321 0.13949262
-0.07160704 -0.13917543 -0.147573 0.03581583 -0.13161436 0.06664042 0.17944379 0.033255313
-0.14415175 0.05070862 0.08095801 -0.037636384 0.25648555 0.20708366 0.13207088 -0.009165831
0.033202104 0.031029588 0.21995963 0.047093645 0.055887107 0.004608881 0.21409732 0.005261693
0.07672433 -0.09773292 0.019676618 -0.093543686 0.13640574 -0.06615913 0.12643561 0.11512552
0.033205587 -0.14823002 0.14486925 0.05648842 0.10040482 0.13228841 0.15723354 -0.10318226
00000000: a5af 2bbe aea1 71be a990 7ebd 1fda 26bd
00000010: 4f82 f2bd 2241 5bbc 1628 27be 52ea 303e
00000020: bb92 9dbd 96f4 63be c071 0f3d 2ed0 063e
00000030: 7b22 8c3d ee77 75bc acaa e53d eed6 3fbb
00000040: 83cd 25be c8f2 51be ba19 e93d b1db c7bc
00000050: 55ad 483d ec19 37bc 5899 2a3e 3025 adbd
00000060: 13cf 403e bd01 793e 3e04 cabb 5e19 68bd
00000070: d995 1b3e 0685 dabd d6b7 fdbd 7b4f f8bd
00000080: 46b5 0ebc 4b0c a9bd 5d25 1bbe c10c 22bd
00000090: 2afc fdbd 0dce a5bd d1ee 453d 3f19 733d
000000a0: 333a d03c bf0b 4dbc fee7 c4bd e84c c03b
000000b0: b3aa 0cbd b5b3 1c3e a24c bfbd c4e2 62be
000000c0: 18e3 3dbe cc43 003e 08f1 7abe 9adb 983d
000000d0: 4644 66be b8d5 b53d 3445 82be 146d 82be
000000e0: 77ff 8abd 08d9 713c 034f 03be 6f0d 28bd
000000f0: e21e 4e3c 36cc 6fbe 4cde 7ebe a809 003e
00000100: bf49 1b3e ce86 d43d 6958 86bd 3a50 f1bd
00000110: ed88 47bd 1cc6 803c c3bc 74be 137a 9f3a
00000120: ed4a dfbd 7e0b afbc a0db 163d 5b26 3dbd
00000130: bbb6 833d 52dd 7abd cf28 163e 3379 44be
00000140: 7864 9f3d 3394 323e 9e99 43bd e22b 95bd
00000150: 913f a3bd ec32 3ebe db93 9dbd 0f0c 373e
00000160: 8519 1fbe a584 1e3d 7347 913c 0382 d03c
00000170: 67cb 3d3d 2fff 09bc 03c7 253d 0c85 afbc
00000180: 9636 2c3c e07e c3bd 4e4c 14be 6447 073d
00000190: 8318 3a3e 499a 333c 91f5 97bd ca75 40be
000001a0: 65aa e33a 8e56 833d b131 603e 023c 2fbe
000001b0: 1bc5 cc3c fe13 b73d c7b2 5b3e 1c8d 193e
000001c0: aec4 293e 3bb4 e43c 804c 21ba d1ac 17be
000001d0: 17c4 df3d c8c5 04be b5be 213c 402e 97bd
000001e0: 586f 1c3e 1dae af3d 4270 1b3d 5b08 cc3d
000001f0: 3058 de3d f895 9d3d 0e80 01bd 6858 bcbd
00000200: 285d 833e 4cc5 ef3d e588 d13d 4c2e 3cbe
00000210: d9b2 0b3d e733 32bd 6233 313d 9420 913d
00000220: d72d 323d 68d4 1f3e bd1d a43c bb8a 873c
00000230: 2315 6f3c e70d a13d a6ac 9d3d 9ff1 5cbe
00000240: 3147 603d e119 af3d 76b6 a7bd ba7b edbd
00000250: f744 c8bd cedb 673d 0298 e7bd de24 3b3e
00000260: aa3a 01bd 802c fabd eb7b 11be c522 13bd
00000270: b479 38be 2783 553e 4c35 42be b788 a93d
00000280: 145f 793c 3a96 a1bc 4072 25be f269 223e
00000290: dd57 893d eada 5b3e e35f d73c 3c12 34be
000002a0: 03bb e5bd 22f2 75bc fcb6 c33d 4dad dc3d
000002b0: fdc5 e2bd 6b3a 34be 40cb 843e 94bf ef3d
000002c0: 9892 023e c034 05be 9316 ba3d 02ea 5cbe
000002d0: fec8 a0bb 1a6c 7bbe f3cc 073e 1a9b 1d3e
000002e0: 0fdf 563e 14d2 d1bc e149 353d 7712 cb3d
000002f0: c4ff 2c3d df2e 923d 7337 703c de68 bdbb
00000300: 7f35 7a3e 9666 d93d 76eb fdbd 6606 2ebd
00000310: 2ff7 6f3d ac8f cabc b981 013e 3260 9b3b
00000320: 563c 00bd a59a 4b3d b56c 343d 1607 ecbc
00000330: db58 5fbd 22f2 d6bd 19bc 7ebd 86c1 21be
00000340: 87f6 813e 4453 35be 72ef 4abe fb78 8b3d
00000350: a013 f53d a643 34be c869 233e 27d7 0e3e
00000360: b6a6 92bd 0184 0ebe 601d 17be 9fb3 123d
00000370: eac5 06be c67a 883d 1dc0 373e b936 083d
00000380: 849c 13be d8b3 4f3d 50cd a53d 9c28 1abd
00000390: 1352 833e bd0d 543e 973d 073e 482c 16bc
000003a0: eefe 073d c331 fe3c 193d 613e 44e5 403d
000003b0: e1e9 643d 1906 973b 543c 5b3e 486a ac3b
000003c0: a521 9d3d 3228 c8bd dc30 a13c d593 bfbd
000003d0: f2ad 0b3e 707e 87bd 5678 013e eec6 eb3d
000003e0: 9502 083d 9cc9 17be 9b58 143e 6760 673d
000003f0: 0ba1 cd3d 9d76 073e d401 213e 3951 d3bd

head_volume.bias f4 [4]
0.12609003 -0.013559753 0.098756015 -0.14164048
00000000: bf1d 013e ba29 5ebc 9840 ca3d 340a 11be
